notebooks/best_model.pth (torch, 60770 bytes, 19 tensors)

network.0.weight f4 [128, 15]
0	0x3dbdbb12	0.092641965
1	0x3d298bc2	0.04139305
2	0x3df77de2	0.12084557
3	0xbc8df73f	-0.01732981
4	0xbdefbebf	-0.11706304
5	0x3d887f45	0.066649
6	0xbe17db14	-0.14829665
7	0x3e352e30	0.176934
8	0x3d320df2	0.04347033
9	0x3e0b9b06	0.13633355
10	0xbe8657b4	-0.26238787
11	0xbe2bbb3d	-0.16770644
12	0xbe2c1f7e	-0.16808888
13	0xbc22d26c	-0.009937864
14	0x3e5cd05a	0.21563855
15	0x3e1dfad2	0.15427712
16	0xbce3a9be	-0.0277909
17	0x3c36212b	0.011116306
18	0x3de890d5	0.113557495
19	0x3df82458	0.12116307
20	0xbc234cbb	-0.009967024
21	0x3bd93366	0.0066284416
22	0x3d83fec9	0.06445081
23	0xbe00c2b1	-0.12574269
24	0xbe14c8c7	-0.14529715
25	0x3e16fc05	0.14744575
26	0x3e6ae4fb	0.22938912
27	0x3e796987	0.24356662
28	0xbe4061ee	-0.18787357
29	0xbe4bec98	-0.19914472
30	0x3d97ca3d	0.07411621
31	0x3cf10da2	0.029425446
32	0xbe5c2c65	-0.2150131
33	0xbd2af2c9	-0.041735444
34	0xbdd468fb	-0.10371586
35	0xbe80957a	-0.25114042
36	0x3d8d0791	0.06886209
37	0x3d8a6c7a	0.067589715
38	0x3d994d10	0.07485402
39	0x3d1e3476	0.03862425
40	0xbbd8fa0a	-0.006621604
41	0x3b3cc1c3	0.0028802014
42	0x3d708a5b	0.058725696
43	0xbe861c0e	-0.2619328
44	0xbe0f8350	-0.14014935
45	0x3dabc6de	0.0838754
46	0xbd62b248	-0.055345803
47	0x3da7d3fa	0.08194728
48	0xbbb1e290	-0.0054286197
49	0x3dd3c9b1	0.10341204
50	0x3d98ff83	0.0747061
51	0xbdf2914b	-0.11844119
52	0x3e34651e	0.17616698
53	0xbde4b3b5	-0.11167089
54	0x3d7b9de6	0.06142988
55	0x3dd050ea	0.10171683
56	0x3e76ac32	0.24089125
57	0x3e075b55	0.13218434
58	0xbd6e8047	-0.058227804
59	0xbe80b4ea	-0.25138026
60	0x3e28f13b	0.16498272
61	0x3dba55ef	0.09098422
62	0xbe3acc5e	-0.18242022
63	0xbd348166	-0.044068716
64	0x3df500ad	0.119630195
65	0xbda00cc7	-0.07814937
66	0xbe182c79	-0.14860715
67	0xbe608578	-0.21925914
68	0x3d5bca79	0.05365989
69	0xbe1c50bd	-0.15265174
70	0x3dd2e0a6	0.102967545
71	0x3d549357	0.051898327
72	0x3e040ce6	0.12895545
73	0xbd23bfb1	-0.039977733
74	0x3e0e5624	0.13900048
75	0x3d85d4c7	0.06534725
76	0x3c72f5f0	0.014829144
77	0xbd523515	-0.051320154
78	0x3da8d6db	0.082441054
79	0x3b08ea22	0.0020891507
80	0x3ea76a0a	0.3269809
81	0x3ddcc8c0	0.107804775
82	0x3e223d35	0.15843661
83	0xbdba8ae7	-0.09108525
84	0xbdac7eda	-0.084226325
85	0xbe22a92d	-0.15884848
86	0xbe3df1cc	-0.1854927
87	0x3e3fe728	0.18740523
88	0x3cf45d2c	0.029829584
89	0xbe80f906	-0.2518999
90	0xbb3beb5f	-0.0028674228
91	0xba6ffbdb	-0.0009154656
92	0x3e346dd4	0.17620021
93	0xbdbe1829	-0.09281952
94	0xbcd7f7f3	-0.026363349
95	0x3e002f3a	0.12518016
96	0x3de13bf7	0.109977655
97	0x3d772222	0.060335286
98	0xbe57aae7	-0.21061288
99	0xbe72f1a3	-0.2372499
100	0x3d009c36	0.031398974
101	0xbe16b129	-0.14716019
102	0xbd943666	-0.07236938
103	0xbdd5b0e7	-0.10434132
104	0x3e5670d1	0.20941474
105	0x3e128b26	0.14310893
106	0x3cb32d00	0.021872044
107	0x3de5d1da	0.11221667
108	0x3df84530	0.121225715
109	0x3d074f87	0.033034828
110	0x3db862d3	0.09003224
111	0x3e29fecf	0.16601108
112	0xbdf359d0	-0.11882365
113	0xbd880c02	-0.06642915
114	0xbe36e6d5	-0.17861493
115	0x3dedd42d	0.11612735
116	0x3def5ed1	0.11688007
117	0xbe14304d	-0.1447155
118	0xbea21fdf	-0.3166494
119	0x3c0e159e	0.008672146
120	0xbd4ac1ef	-0.049501356
121	0xbbdb5da4	-0.0066945124
122	0xbcaf9a0c	-0.02143576
123	0xbc179d23	-0.009253773
124	0xbd12f1fa	-0.035875298
125	0x3d8dc14a	0.069216326
126	0x3e528145	0.20557125
127	0xbde5252b	-0.1118873
128	0xbe8f1976	-0.27949113
129	0xbe28c12a	-0.16479936
130	0xba28be0e	-0.0006437012
131	0x3e4564cf	0.19276737
132	0xbea57e17	-0.3232276
133	0xbdbdb34d	-0.092627145
134	0x3cb3b78d	0.02193811
135	0xbd1e6dbb	-0.038678866
136	0xbce51e58	-0.02796857
137	0xbd18c5fe	-0.037298195
138	0xbc7c4c4a	-0.015399048
139	0x3d9c7e7f	0.07641315
140	0x3df74c61	0.12075115
141	0xbd918b29	-0.07106621
142	0x3e8757dc	0.2643422
143	0xbdcd0829	-0.10011322
144	0x3e8d3568	0.27579808
145	0xbd6c7ba1	-0.05773509
146	0xbe618ec2	-0.22027114
147	0xbb850626	-0.004059571
148	0xbd9e67be	-0.07734631
149	0xbdf0bc7f	-0.11754703
150	0xbe12b537	-0.1432694
151	0x3bae7a70	0.0053246543
152	0x3df6d6d2	0.120526925
153	0x3d95f0e1	0.07321335
154	0x3e042183	0.12903409
155	0x3c0151f8	0.007893078
156	0x3d4991b8	0.049211234
157	0x3d87960c	0.06620416
158	0xbc470ae9	-0.012148597
159	0xbe9ab9fe	-0.30220026
160	0xbe245ed1	-0.16051795
161	0xbc1595fb	-0.009129996
162	0xbced770a	-0.028987426
163	0x3dcb6619	0.09931583
164	0xbe0d1d03	-0.13780598
165	0xbbc3d34b	-0.005976116
166	0x3bba32e5	0.0056823366
167	0x3bb74b6b	0.0055937073
168	0xbe449b0b	-0.19199769
169	0xbdc6e005	-0.09710697
170	0x3e1cf6da	0.15328541
171	0xbe3ff27e	-0.18744847
172	0xbe6e2f7a	-0.23260298
173	0xbdd55475	-0.104164995
174	0xbc9368cd	-0.017994309
175	0xbdd66c79	-0.10469908
176	0x3e36beea	0.17846265
177	0x3e25c674	0.16188985
178	0xbe11c867	-0.14236604
179	0xbdae3ad2	-0.08507313
180	0x3dd327e4	0.10310343
181	0x3d2fe3a6	0.04294171
182	0xbb82b922	-0.0039893547
183	0xbc95ee5e	-0.018302139
184	0x3c98c64b	0.018649241
185	0xbdf4ccd4	-0.1195313
186	0xbdb91c4a	-0.09038599
187	0xbe6422e7	-0.22278939
188	0x3e37aec9	0.17937769
189	0xbe5eec89	-0.21769919
190	0x3e5954c5	0.21223743
191	0xbe0c1ef1	-0.13683678
192	0x3eac24a2	0.336217
193	0xbe13e780	-0.14443779
194	0x3e8250ce	0.25452274
195	0xbca0691a	-0.019581366
196	0x3d0c59a6	0.034265183
197	0x3bb68f34	0.0055712704
198	0x3d3c01cc	0.04590015
199	0xbcbd7608	-0.02312757
200	0xbe76dc24	-0.24107414
201	0x3c2ac46a	0.010422805
202	0x3e416d7a	0.18889418
203	0x3e06679c	0.13125461
204	0x3e71d58d	0.2361662
205	0xbe52b06b	-0.2057511
206	0x3c5979e7	0.013273693
207	0x3e80c65a	0.2515133
208	0x3de22ab3	0.110433005
209	0xbe2b821a	-0.16748849
210	0x3e071a42	0.1319361
211	0x3d08af46	0.03337028
212	0xbe087256	-0.13324866
213	0xbdbb3473	-0.09140863
214	0xbd38ee65	-0.045149226
215	0x3b94e4f3	0.0045438944
216	0x3dc6d8ee	0.09709345
217	0x3e1b6e95	0.15178902
218	0x3dc88299	0.097905345
219	0x3db24d38	0.087061346
220	0x3e5a5362	0.2132087
221	0xbd0414b8	-0.03224632
222	0xbe694f6c	-0.22784203
223	0xbe4b2463	-0.19838099
224	0xbe24016f	-0.16016172
225	0xbdf78048	-0.120850146
226	0x3dae4e09	0.08510978
227	0xbcbb9d78	-0.022902235
228	0xbd86967a	-0.0657167
229	0x3e1abaa0	0.15110254
230	0xbca8a6ab	-0.020587286
231	0xbd4d3816	-0.050102316
232	0x3cbfdb03	0.023419863
233	0xbde0ebc4	-0.10982469
234	0xbe4d6733	-0.20058899
235	0x3e2e340b	0.1701204
236	0x3d1f85ed	0.03894608
237	0xbde05725	-0.109541215
238	0xbdc6e3a8	-0.09711391
239	0xbe00c64a	-0.12575641
240	0x3d89d9a1	0.067309625
241	0xbcaf893b	-0.021427741
242	0xbc6d45a7	-0.014481938
243	0xbd3c3f48	-0.045958787
244	0xbae52143	-0.0017481226
245	0xbe4e642b	-0.20155399
246	0x3e6727b9	0.22573747
247	0xbd3f9a32	-0.04677791
248	0x3e54de6b	0.2078797
249	0xbe84e18a	-0.25953323
250	0x3db485bc	0.0881457
251	0x3e96aa33	0.29426727
252	0x3e4acf33	0.19805603
253	0xbe633374	-0.22187597
254	0xbe833e3f	-0.25633428
255	0x3cc6fab0	0.024289459

network.0.bias f4 [128]
0	0x3782b750	1.558257e-05
1	0xb7000167	-7.629721e-06
2	0xb7068929	-8.0189575e-06
3	0x37e201d6	2.6942154e-05
4	0xb7946b8a	-1.7693052e-05
5	0x37ffddb2	3.0501604e-05
6	0xb77696e7	-1.4697877e-05
7	0x369d5171	4.6884456e-06
8	0xb7ce8b62	-2.4622019e-05
9	0x37e24f4e	2.6978229e-05
10	0xb59f1fe0	-1.18557e-06
11	0x3674fc38	3.6505644e-06
12	0x36947854	4.4247518e-06
13	0x38160b86	3.577352e-05
14	0x35c874c8	1.4935149e-06
15	0x363cf429	2.8156303e-06
16	0x38c1880e	9.228299e-05
17	0x37e9bab2	2.7862701e-05
18	0x36c49dc0	5.8596197e-06
19	0x379c7977	1.865321e-05
20	0x372ce17a	1.0304497e-05
21	0xb7d9d4a5	-2.5967436e-05
22	0xb78a729d	-1.6504253e-05
23	0xb50ffd28	-5.364004e-07
24	0xb6208304	-2.391812e-06
25	0x3793919b	1.7591568e-05
26	0xb590cf81	-1.0789228e-06
27	0xb696e834	-4.4973804e-06
28	0xb86eed7f	-5.6964807e-05
29	0x38a5c7a6	7.9050005e-05
30	0x358402d1	9.835586e-07
31	0x371f4c06	9.494839e-06
32	0xb406db20	-1.255944e-07
33	0xb713be2a	-8.806159e-06
34	0x37d2bb75	2.5121242e-05
35	0x3664b9bd	3.4082761e-06
36	0xb936c6c4	-0.00017430919
37	0xb77bb0b5	-1.5001909e-05
38	0x36a6e0b8	4.973346e-06
39	0x3802fd18	3.1230127e-05
40	0xb8662d5f	-5.487853e-05
41	0xb871b865	-5.763061e-05
42	0xb7214987	-9.613467e-06
43	0x363c35f2	2.8045583e-06
44	0xb7945b34	-1.7685445e-05
45	0x372c526f	1.0271192e-05
46	0x37a395c4	1.9500854e-05
47	0x35fd1166	1.8855033e-06
48	0xb79c6c35	-1.8647037e-05
49	0xb7526317	-1.2540047e-05
50	0xb6dee6ee	-6.6429993e-06
51	0xb8babd0a	-8.9043824e-05
52	0xb73c402d	-1.1220615e-05
53	0xb6b4df94	-5.390446e-06
54	0x375673af	1.2782329e-05
55	0x358d7a97	1.0540997e-06
56	0x368e3b06	4.238801e-06
57	0xb636e94e	-2.7255915e-06
58	0xb5b6c8b4	-1.3618469e-06
59	0xb7354f33	-1.0806881e-05
60	0xb7188910	-9.091818e-06
61	0xb8878704	-6.46245e-05
62	0xb716ae6c	-8.9813075e-06
63	0xb4c1c55e	-3.6092655e-07
64	0xb5082aff	-5.0726516e-07
65	0xb6a96b72	-5.0491008e-06
66	0xb6b93696	-5.5197843e-06
67	0xb722a4c3	-9.694314e-06
68	0x386f8576	5.7106336e-05
69	0x36b73427	5.4598963e-06
70	0x3772af98	1.4465208e-05
71	0xb70b50ef	-8.303889e-06
72	0x38e88db0	0.000110890134
73	0x360e1d61	2.117675e-06
74	0xb6b1cdc4	-5.2989653e-06
75	0xb94acbb1	-0.00019340102
76	0x35e69c68	1.7181856e-06
77	0xb55f381c	-8.3155624e-07
78	0xb8219c6f	-3.853108e-05
79	0xb7de2178	-2.6480047e-05
80	0x350c41f8	5.225006e-07
81	0xb75233e5	-1.2529058e-05
82	0x3704b435	7.909771e-06
83	0x360cbd6b	2.0971881e-06
84	0x37b61f2b	2.1710604e-05
85	0xb80e5150	-3.3931166e-05
86	0xb64c1248	-3.040901e-06
87	0xb5b466ed	-1.3441e-06
88	0x351feab3	5.957365e-07
89	0x3810778d	3.4443616e-05
90	0xb984fa54	-0.0002536351
91	0x3736d842	1.0898397e-05
92	0x3734d73e	1.0778951e-05
93	0xb6ac3837	-5.1325437e-06
94	0x36d6f2f5	6.405981e-06
95	0x36b5223d	5.398206e-06
96	0x37176f94	9.02628e-06
97	0x35ec6a15	1.7614244e-06
98	0xb73835b6	-1.097976e-05
99	0xb669db3c	-3.4847317e-06
100	0x37d74444	2.5661786e-05
101	0xb7aae19e	-2.037064e-05
102	0x37cce5d6	2.442572e-05
103	0xb80dd481	-3.381493e-05
104	0xb946566a	-0.00018914943
105	0x36cafcef	6.0495145e-06
106	0x3771bef5	1.440918e-05
107	0xb922cf58	-0.00015526765
108	0x36bff62a	5.720901e-06
109	0x393901a7	0.0001764359
110	0xb61c2415	-2.3266814e-06
111	0x37411418	1.1508375e-05
112	0xb7caa686	-2.415782e-05
113	0xb88bd2ed	-6.6673245e-05
114	0xb84c7de0	-4.875462e-05
115	0xb5f7f3fe	-1.8473945e-06
116	0xb8534cc7	-5.0377825e-05
117	0xb60f1800	-2.132263e-06
118	0xb6c70797	-5.9315457e-06
119	0xb3b38e48	-8.361218e-08
120	0x38c20c6e	9.252956e-05
121	0x3727c8c2	1.0000718e-05
122	0xb44752c0	-1.8563424e-07
123	0x3a2a9f15	0.00065086904
124	0x38718c3a	5.7589474e-05
125	0xb74fa64d	-1.2376881e-05
126	0xb6dc5c63	-6.567266e-06
127	0x370011d0	7.633542e-06

network.1.weight f4 [128]
0	0x3f49ceed	0.7883137
1	0x3f52b33d	0.82304746
2	0x3f360773	0.71105117
3	0x3f301998	0.6878905
4	0x3f57eb22	0.8434316
5	0x3f89ba81	1.0760041
6	0x3f7056f6	0.9388269
7	0x3f6344e7	0.8877701
8	0x3f6a26a7	0.9146523
9	0x3f85b9ce	1.0447328
10	0x3f3c3e88	0.73532915
11	0x3f3a09ad	0.72671014
12	0x3f944673	1.1583999
13	0x3f68b159	0.9089561
14	0x3f2fbc6b	0.6864688
15	0x3f3cbcd5	0.73725635
16	0x3f88c208	1.0684214
17	0x3f7bc0a5	0.9834083
18	0x3f3a0121	0.7265797
19	0x3f4851db	0.782499
20	0x3f4d52a0	0.802042
21	0x3f842438	1.0323553
22	0x3f60e0a6	0.87842786
23	0x3f33556c	0.7005222
24	0x3f3b50f0	0.73170376
25	0x3f50f194	0.8161862
26	0x3f581746	0.8441051
27	0x3f7c9e24	0.98678803
28	0x3f8a3f78	1.0800619
29	0x3f86af9d	1.0522343
30	0x3f1f3ee0	0.62205315
31	0x3f390bb0	0.7228346
32	0x3f4a647d	0.7905958
33	0x3f4ab371	0.79180056
34	0x3f3dd080	0.7414627
35	0x3f374bfa	0.71600306
36	0x3f935e94	1.1513238
37	0x3f5c56cd	0.8606995
38	0x3f429f55	0.7602437
39	0x3f68f434	0.90997624
40	0x3f7ad564	0.9798186
41	0x3f67ed26	0.90596235
42	0x3f323d2d	0.69624597
43	0x3f524fee	0.82153213
44	0x3f88610e	1.0654619
45	0x3f25d5c8	0.6477933
46	0x3f853304	1.0406194
47	0x3f436a09	0.7633367
48	0x3fa269f0	1.268858
49	0x3f4b75ff	0.7947692
50	0x3f52a227	0.82278675
51	0x3f6ec1b1	0.932643
52	0x3f66b2b5	0.90116435
53	0x3f3f8faa	0.7482859
54	0x3f62bcf0	0.88569546
55	0x3f50f8eb	0.8162982
56	0x3f6b28bb	0.91859025
57	0x3f6e3639	0.9305149
58	0x3f51e908	0.819962
59	0x3f7b3c9a	0.98139346
60	0x3f2900a2	0.6601659
61	0x3f7177df	0.94323534
62	0x3f4a52ee	0.7903279
63	0x3f2ff230	0.68728924
64	0x3f5660f9	0.8374172
65	0x3f41d690	0.7571802
66	0x3f7913f9	0.972961
67	0x3f4fe2e3	0.81205577
68	0x3f5d450c	0.8643348
69	0x3f6a6a96	0.9156889
70	0x3f2537a6	0.6453804
71	0x3f3fc985	0.7491687
72	0x3f892644	1.0714803
73	0x3f2d4a1a	0.67691195
74	0x3f4be0b2	0.7963973
75	0x3f79d16e	0.9758519
76	0x3f44fbb7	0.76946586
77	0x3f7569cf	0.95864576
78	0x3f6fba05	0.9364322
79	0x3fa908a3	1.3205761
80	0x3f500d3a	0.8127018
81	0x3f8acecf	1.0844363
82	0x3f3b7c7a	0.7323681
83	0x3f3438a7	0.70398945
84	0x3f5bee57	0.8591055
85	0x3f5d3aad	0.8641766
86	0x3f40cf46	0.75316274
87	0x3f388021	0.7207051
88	0x3f4d8961	0.8028775
89	0x3f89827d	1.0742947
90	0x3f7a17d0	0.97692585
91	0x3f2f513c	0.6848333
92	0x3f77a87e	0.96741474
93	0x3f45e7c2	0.7730676
94	0x3f476e87	0.77903026
95	0x3f411842	0.7542764
96	0x3f6406ef	0.8907308
97	0x3f2e7da7	0.6816048
98	0x3f48c687	0.7842793
99	0x3f5b64bc	0.85700583
100	0x3f680f1e	0.90648067
101	0x3f81be9c	1.0136294
102	0x3f596fbf	0.84936136
103	0x3f776662	0.966406
104	0x3f83265f	1.0246085
105	0x3f4e3e98	0.8056426
106	0x3f74a66a	0.9556643
107	0x3f950efb	1.1645197
108	0x3f5a0a3b	0.8517186
109	0x3fa13ff6	1.2597644
110	0x3f489278	0.78348494
111	0x3f559e2b	0.8344447
112	0x3f5be4cd	0.85896
113	0x3f59c8e8	0.85072184
114	0x3f50ee9c	0.8161409
115	0x3f46ead6	0.7770208
116	0x3f567078	0.83765364
117	0x3f3a1008	0.7268071
118	0x3f3c1698	0.73471975
119	0x3f40c2eb	0.7529742
120	0x3f88c109	1.068391
121	0x3f6bb5ab	0.9207408
122	0x3f5309ef	0.8243703
123	0x3f7ffe86	0.99997747
124	0x3fa23b48	1.2674341
125	0x3f4a8769	0.7911287
126	0x3f4f5888	0.8099446
127	0x3f4c0f3e	0.7971076

network.1.bias f4 [128]
0	0xbd4c9c62	-0.049953826
1	0xbe079abe	-0.13242623
2	0xbdc57b4c	-0.09642658
3	0xbe09a7d7	-0.13442932
4	0xbdeee3e5	-0.11664561
5	0xbd541d26	-0.05178561
6	0xbd2f42e7	-0.042788412
7	0xbe25335b	-0.16132872
8	0xbdd6461c	-0.10462591
9	0xbde9bf32	-0.11413421
10	0xbe108855	-0.14114507
11	0xbda4b41f	-0.08042168
12	0xbe4a2eb7	-0.19744383
13	0x3b5f0430	0.0034029596
14	0xbe131f74	-0.14367467
15	0xbe0f8714	-0.14016372
16	0x3e10f9ed	0.14157839
17	0x3dfa8b5a	0.122336105
18	0xbe5b201e	-0.2139897
19	0xbd96df5d	-0.07366822
20	0xbe0b2ace	-0.13590547
21	0x3e85b4ef	0.26114604
22	0xbc0a1e6b	-0.008430104
23	0xbe08d12a	-0.1336104
24	0xbe4a59ed	-0.19760866
25	0xbe236a97	-0.1595863
26	0xbe05fedc	-0.13085502
27	0xbdfffc34	-0.12499276
28	0xbd2c4d8d	-0.042066146
29	0xbe38c79f	-0.180449
30	0xbe34fda2	-0.17674878
31	0xbdab24e0	-0.08356643
32	0xbd69a14d	-0.057038594
33	0xbd70a81e	-0.05875408
34	0xbdea7749	-0.11448533
35	0xbe185f1b	-0.1488003
36	0x3d0d2941	0.03446317
37	0xbda87561	-0.08225513
38	0x3a975d09	0.0011548112
39	0xbde82fb5	-0.113372244
40	0xbd8e0bfa	-0.06935878
41	0xbe439e47	-0.19103347
42	0xbdd70996	-0.10499875
43	0xbde3c92b	-0.11122354
44	0xbe57cf91	-0.21075274
45	0xbe3a7cee	-0.1821172
46	0x3e5593d2	0.2085717
47	0x3d0e9a70	0.03481525
48	0xbe3f7710	-0.18697762
49	0xbe400f6a	-0.1875588
50	0xbd2a4fab	-0.041579884
51	0xbe329147	-0.17438231
52	0xbe2a0549	-0.16603579
53	0xbe47290d	-0.19449253
54	0xbe2924e2	-0.16517976
55	0xbda38296	-0.07983892
56	0xbdf9fe75	-0.12206737
57	0xbd8474e1	-0.064676054
58	0xbd4c1dee	-0.04983323
59	0xbdd42090	-0.10357773
60	0xbda457da	-0.08024569
61	0xbd438b23	-0.047740113
62	0xbc2336b2	-0.009961771
63	0xbe228e7c	-0.15874666
64	0xbdee7d89	-0.11645038
65	0xbd261f1b	-0.04055701
66	0xbd3455bc	-0.044027075
67	0x3dad5344	0.08463147
68	0xbd7756bd	-0.060385454
69	0xbdd3e476	-0.1034631
70	0xbdfd1cba	-0.12358995
71	0xbd2478ea	-0.040154375
72	0x3df0792d	0.117418624
73	0xbc21e470	-0.009881124
74	0xbc790eba	-0.015201265
75	0xbd94b043	-0.07260182
76	0xbd34c2c2	-0.044131048
77	0x3d66d99c	0.056359872
78	0xbdaecd51	-0.08535255
79	0xbd3df4d7	-0.046376076
80	0xbd9127d3	-0.07087674
81	0x3e80bc5f	0.25143716
82	0xbc9841e1	-0.018586101
83	0xbdd24e0a	-0.10268791
84	0xbde2a1eb	-0.1106604
85	0xbdad743f	-0.08469438
86	0xbc953275	-0.018212536
87	0xbe66446c	-0.22487038
88	0xbd6b084d	-0.057380963
89	0xbd9f7337	-0.07785647
90	0x3dfe8d25	0.12429265
91	0xbdce4771	-0.1007222
92	0xbd99d280	-0.07510853
93	0xbd5b71ce	-0.05357533
94	0xbd8cfbf8	-0.06883997
95	0x3cdbdf90	0.026840001
96	0xbdf9d0b4	-0.1219801
97	0xbe36588f	-0.1780722
98	0xbc6d8efb	-0.014499421
99	0xbdb6c0e7	-0.08923512
100	0xbdc20a29	-0.09474594
101	0xbd87950e	-0.06620227
102	0xbda5c7df	-0.08094763
103	0xbced5197	-0.02896957
104	0x3ddbf79c	0.10740587
105	0xbd44a32c	-0.048007175
106	0x3c89db52	0.016828213
107	0x3ce55efb	0.027999392
108	0xbdac90b0	-0.084260345
109	0xbdf6155d	-0.120157935
110	0xbe5d5963	-0.2161613
111	0x3d808a34	0.0627636
112	0x3ab34119	0.0013676017
113	0xbe38b2d3	-0.18036966
114	0xbe0da198	-0.13831174
115	0xbd486839	-0.04892752
116	0xbdb21451	-0.08695281
117	0xbdbc57b8	-0.091964185
118	0xbe4d76a3	-0.20064788
119	0xbd4c005e	-0.049805038
120	0xbd6172f3	-0.055041265
121	0xbdcb3df9	-0.0992393
122	0x3cd99a2e	0.026562776
123	0x3cb43230	0.021996588
124	0x3db015a2	0.08597876
125	0xbdd4018f	-0.1035186
126	0xbdc14f0b	-0.094389044
127	0x3d44f2c1	0.04808307

network.1.running_mean f4 [128]
0	0x3bbfab58	0.005849283
1	0xbb3320e6	-0.0027332841
2	0xb9bfd770	-0.00036590872
3	0xbb259def	-0.0025271138
4	0xbb406e6e	-0.0029362696
5	0xb9ac3430	-0.0003284528
6	0x3c9fd0c8	0.019508734
7	0x3c459872	0.012060272
8	0x3cb62415	0.022234002
9	0xbb94ecb1	-0.0045448174
10	0xbbee3ee5	-0.007270681
11	0xba45dd60	-0.0007547941
12	0xbc00b02f	-0.007854505
13	0xbca40672	-0.020022605
14	0x3c81bdb1	0.015837522
15	0x3b5a0a20	0.0033270195
16	0xbaa32815	-0.0012447858
17	0xbc0d2dea	-0.008616904
18	0xbb56c27e	-0.0032769735
19	0x3c0f174b	0.008733581
20	0x3ca736ee	0.020411935
21	0xbb0e07c3	-0.0021672107
22	0xbbbdf8ad	-0.0057974667
23	0xba0b33a4	-0.0005310124
24	0x3b951096	0.0045490963
25	0x3b95619d	0.0045587556
26	0xbc114fb9	-0.008869105
27	0xbaddc736	-0.0016920331
28	0x3b18ea0c	0.0023332862
29	0x3c47299a	0.012155915
30	0xbb598a83	-0.0033194132
31	0x3b1db847	0.0024066137
32	0xbbf7a23a	-0.0075571807
33	0x38e40298	0.0001087237
34	0x39d868e0	0.00041276868
35	0x3945b3a8	0.00018854311
36	0x3b6efa8a	0.003646525
37	0x3beb8034	0.007186914
38	0x3b8fd9b9	0.0043899682
39	0x3c9f1386	0.01941849
40	0x3a1572e7	0.0005701021
41	0xbb463d5c	-0.0030248975
42	0x3c45aeac	0.012065571
43	0xbbeb0fb8	-0.0071735047
44	0xbb6e11c9	-0.0036326519
45	0x3c1f5bf4	0.009726513
46	0xbcbb57e4	-0.022869058
47	0xbc14ed4c	-0.009089779
48	0x3bbd0906	0.005768898
49	0xbba4bbc0	-0.0050272644
50	0xbc7e6a96	-0.015528342
51	0xbabcf5e0	-0.0014416538
52	0x3b7a341c	0.0038178032
53	0xbc3e143e	-0.011601506
54	0xb88fdbc0	-6.859703e-05
55	0xbbb0fc7e	-0.005401193
56	0xbb8e9e1a	-0.0043523433
57	0xbc825045	-0.015907416
58	0x3958c354	0.0002067213
59	0xbb0867c6	-0.0020813807
60	0x3bb38ea1	0.005479649
61	0x3c15e459	0.009148681
62	0x3c976dfc	0.018485062
63	0x3a6fdd00	0.0009150058
64	0xbc845c58	-0.016157314
65	0x3b41714c	0.0029516993
66	0x3a71b836	0.000922087
67	0xbb3a600c	-0.0028438596
68	0x3a6427b3	0.00087034254
69	0x3c82ac5f	0.015951334
70	0xbba46f95	-0.0050181844
71	0x3b19dd83	0.0023477979
72	0x3c31586a	0.010824302
73	0x39d34df2	0.0004030313
74	0xbb6bba98	-0.0035969373
75	0xbb14c7c6	-0.0022702082
76	0x3c1d6bcc	0.00960822
77	0xbb46bafb	-0.0030323851
78	0xbc2a6cb1	-0.010401891
79	0x3918fc30	0.00014589797
80	0xbb5bc2f8	-0.0033532958
81	0xbae1d79b	-0.0017230393
82	0x3892c000	6.997585e-05
83	0x3b4d3de9	0.003131742
84	0x3c8e6d5b	0.01738613
85	0xbb05c878	-0.0020413678
86	0xbc9063b0	-0.01762566
87	0xbc1eb007	-0.009685523
88	0xbb2e69a9	-0.0026613271
89	0x3ca262fc	0.01982259
90	0x3b6191c0	0.003441915
91	0xbb637593	-0.003470753
92	0xbb97fea1	-0.0046385084
93	0x3c1871c5	0.0093044685
94	0xbb4aed7a	-0.00309643
95	0xbc1b9153	-0.009495097
96	0x3c6a9175	0.014316906
97	0x3cbe4887	0.023227943
98	0xbad90572	-0.0016557409
99	0x3c09cd86	0.008410817
100	0x3c16e100	0.009208918
101	0x3ca63403	0.020288473
102	0xbc855556	-0.016276043
103	0x3a18a2a4	0.0005822575
104	0xbb2e5345	-0.0026599925
105	0x3c865ee2	0.016402666
106	0xbc255ff2	-0.010093676
107	0x3bb091a6	0.0053884564
108	0x3c992778	0.018695578
109	0x3aae6598	0.0013305424
110	0x3b8b2f86	0.0042476086
111	0x3c01254d	0.007882428
112	0xbc046a1a	-0.008081937
113	0x3b04388a	0.0020175301
114	0xbb28869a	-0.0025714994
115	0xbc6c1fc9	-0.014411875
116	0xb9d49df6	-0.0004055348
117	0x3c274446	0.010209149
118	0xbb052753	-0.0020317629
119	0x3cf4407c	0.029815905
120	0x3b704301	0.0036661031
121	0xba6eacb7	-0.0009104716
122	0xbc4fad65	-0.012675618
123	0xba9371db	-0.0011249142
124	0x3c0d3736	0.00861912
125	0x3a1dd470	0.00060207304
126	0x3c561fcd	0.013069105
127	0x3cb0517c	0.02152323

network.1.running_var f4 [128]
0	0x3d0479ad	0.0323426
1	0x3cfd57a4	0.03092558
2	0x3e56c7cd	0.20974655
3	0x3da26f16	0.07931344
4	0x3dd632c3	0.10458901
5	0x3d1fd484	0.03902103
6	0x3d23f38f	0.040027197
7	0x3da7b2bd	0.081883885
8	0x3de581b7	0.11206382
9	0x3c6b436a	0.0143593345
10	0x3e0dfd83	0.13866238
11	0x3e52fd14	0.20604354
12	0x3c68c8f7	0.01420807
13	0x3d714feb	0.058914106
14	0x3d1eeb84	0.038798824
15	0x3e40d552	0.18831375
16	0x3bc409f7	0.005982633
17	0x3d285862	0.041099913
18	0x3dde39b2	0.10850848
19	0x3d2f71d9	0.042833183
20	0x3d1b6a6d	0.037943292
21	0x3ca640bd	0.020294541
22	0x3d019e5c	0.031645164
23	0x3e81b85f	0.25335976
24	0x3d38c286	0.045107387
25	0x3c86b34f	0.016442923
26	0x3d981ca9	0.074273415
27	0x3c13089f	0.008974223
28	0x3bb4a1a0	0.0055124313
29	0x3d2ade35	0.04171582
30	0x3e8554b5	0.2604119
31	0x3db31f06	0.087461516
32	0x3d99d2a5	0.075108804
33	0x3d1d81d5	0.038453896
34	0x3da0bf53	0.07848992
35	0x3d239d7f	0.03994512
36	0x3be1c6bc	0.006890146
37	0x3cc7b03f	0.024376033
38	0x3f0fd3e5	0.561827
39	0x3d0f82a0	0.035036683
40	0x3c0f1ddf	0.008735149
41	0x3d227672	0.03966374
42	0x3dbea089	0.093079634
43	0x3efaa1b9	0.4895151
44	0x3cc5e934	0.024159051
45	0x3d3a2898	0.04544887
46	0x3ce3c1e6	0.027802419
47	0x3d6565e3	0.05600537
48	0x3c591100	0.013248682
49	0x3d96863b	0.07349821
50	0x3d9d9b9a	0.07695694
51	0x3d017e8e	0.031614833
52	0x3c936ec7	0.017997159
53	0x3e96911a	0.2940758
54	0x3c5e52da	0.013569558
55	0x3dacb16a	0.084322765
56	0x3cc5a433	0.024126148
57	0x3d9d6ae1	0.07686401
58	0x3d1a6c20	0.037700772
59	0x3c393b9b	0.011305715
60	0x3ddc2cba	0.107507184
61	0x3d1f1e32	0.038847156
62	0x3d8026de	0.06257413
63	0x3ddb9a80	0.10722828
64	0x3f4bf54b	0.7967116
65	0x3dc2f3a1	0.09519125
66	0x3d697742	0.0569985
67	0x3c766b6d	0.015040261
68	0x3d16c5c3	0.036809694
69	0x3d720dbf	0.05909514
70	0x3d38510f	0.04499918
71	0x3eae5b7c	0.34054172
72	0x3c700696	0.014650008
73	0x3d4179a0	0.04723513
74	0x3f7cf527	0.9881157
75	0x3c9c1232	0.019051645
76	0x3d7b1c28	0.06130615
77	0x3d8b89dc	0.06813404
78	0x3c70c2d8	0.014694892
79	0x3c82996d	0.0159423
80	0x3c5f6f21	0.013637335
81	0x3c3f6ede	0.011684148
82	0x3eb66814	0.3562628
83	0x3d933eee	0.07189737
84	0x3d859f56	0.065245315
85	0x3da9ef13	0.08297553
86	0x3f384013	0.7197277
87	0x3e265e02	0.16246799
88	0x3e36f2c3	0.17866044
89	0x3dc80001	0.09765626
90	0x3c2739bd	0.010206637
91	0x3d44c5a4	0.048040047
92	0x3cd5fc2a	0.026121218
93	0x3cfa4670	0.030551165
94	0x3d92c5b6	0.071666166
95	0x3d80c820	0.06288171
96	0x3d1889be	0.037240736
97	0x3ea27b3c	0.31734645
98	0x3e02edb1	0.12785985
99	0x3d7d889c	0.06189786
100	0x3d455c04	0.048183456
101	0x3d533ebe	0.051573507
102	0x3dddcf43	0.10830548
103	0x3be6211f	0.0070229913
104	0x3cb99e14	0.022658385
105	0x3e07d26e	0.13263866
106	0x3ce66761	0.028125467
107	0x3b12cfda	0.0022401721
108	0x3d903312	0.07040991
109	0x3d03e159	0.03219733
110	0x3dcdeeb6	0.10055296
111	0x3d55ffa2	0.052245744
112	0x3d1d3bdc	0.038387164
113	0x3ccf8c89	0.025335567
114	0x3c4b41cd	0.012405825
115	0x3db45a8b	0.08806332
116	0x3cbafb79	0.02282499
117	0x3ddecbde	0.10878728
118	0x3e3867be	0.18008325
119	0x3dfdb5b0	0.1238817
120	0x3cf0a3ed	0.02937504
121	0x3b9a05bf	0.004700392
122	0x3f3da668	0.7408204
123	0x3b560beb	0.0032660912
124	0x3d452895	0.048134405
125	0x3d53f1c4	0.051744238
126	0x3dece09c	0.11566278
127	0x3e7b1e92	0.2452338

network.4.weight f4 [64, 128]
0	0x3ca892f3	0.020577883
1	0x3cd2af57	0.025718374
2	0x3d520357	0.051272716
3	0xbca652f7	-0.020303233
4	0xbcbdb56a	-0.023157794
5	0xbe36f3cf	-0.17866443
6	0x3d2de6d7	0.042456474
7	0x3d9a5627	0.075359635
8	0xbcc9ca30	-0.024632543
9	0xbd6b8060	-0.057495475
10	0x3c23937e	0.009983895
11	0x3ccd266d	0.025042737
12	0x3e03cb3f	0.12870501
13	0xbe3d080f	-0.18460105
14	0x3dc04aba	0.09389253
15	0xbd791ea5	-0.06082024
16	0xbce3fd9a	-0.027830888
17	0xbe4067cf	-0.187896
18	0xb7b25748	-2.1259897e-05
19	0x3d477eb2	0.04870481
20	0x3d118934	0.035531238
21	0xbe5adb83	-0.213728
22	0x3d1e16cb	0.038595956
23	0x3d50663d	0.050878752
24	0xbce0bfeb	-0.027435264
25	0xbd1be95e	-0.038064353
26	0x3e2d6df3	0.16936474
27	0xbd75930b	-0.059954684
28	0xbd859f44	-0.06524518
29	0x3d40c949	0.04706696
30	0x3c6e509f	0.014545589
31	0xbcb3fba7	-0.021970583
32	0xbde814f4	-0.113321215
33	0x3d5b0152	0.053468056
34	0xbbfd7274	-0.007734591
35	0xbcdcbf84	-0.02694679
36	0xbdfc1c07	-0.12310033
37	0xbcbf389c	-0.023342423
38	0xbd16c0ab	-0.036804836
39	0x3d11bcc3	0.035580408
40	0xbd0c8c6a	-0.034313597
41	0xbdd55916	-0.104173824
42	0x3b0245e2	0.001987808
43	0x3de2196c	0.11040005
44	0x3c58a46d	0.013222796
45	0xbc043def	-0.008071407
46	0xbe6a660c	-0.2289049
47	0xbbf7355b	-0.0075442023
48	0x3e534175	0.20630439
49	0xbcd59e8b	-0.026076576
50	0x3e0fe938	0.1405381
51	0x3e2be272	0.16785601
52	0x3dfed6b2	0.12443294
53	0xbbdb4b02	-0.0066922912
54	0x3bf0b771	0.0073460867
55	0xbd8c3ae9	-0.06847174
56	0xbcb82791	-0.022479804
57	0x3e0e7c91	0.13914706
58	0xbdd5e055	-0.104431786
59	0xbcb5dbc1	-0.022199513
60	0xbc04111f	-0.008060723
61	0x3e0e2bd3	0.13883905
62	0xbd8f1385	-0.06986145
63	0x3d0d1395	0.034442503
64	0x3c0f44b0	0.008744404
65	0x3d774f84	0.060378566
66	0xbd875086	-0.066071555
67	0x3cc1772e	0.0236164
68	0xbd88b914	-0.06675926
69	0x3dabb71e	0.08384536
70	0xb9c0228f	-0.00036646842
71	0xbcd81061	-0.026374998
72	0xbe0aa642	-0.13539985
73	0x3d446615	0.047948916
74	0xbcb13440	-0.02163136
75	0xbc0481f6	-0.008087626
76	0xbc6d7e7f	-0.014495491
77	0xbd817d86	-0.0632277
78	0xbc172b85	-0.009226684
79	0xbe3a4683	-0.1819096
80	0xbc88b5ae	-0.016688194
81	0x3c8e0472	0.017336104
82	0xbd6ec6fa	-0.058295228
83	0x3d348184	0.04406883
84	0xbd8077c2	-0.06272842
85	0xbd61968e	-0.05507522
86	0xbd64ccab	-0.05585925
87	0xbc87abd7	-0.016561432
88	0x3d829882	0.06376745
89	0xbdb367ae	-0.0876001
90	0xbdfc9b3e	-0.123342976
91	0xbc9be158	-0.01902835
92	0xbdd5a276	-0.104313776
93	0xbc40f306	-0.011776691
94	0xbc8de87a	-0.017322768
95	0xbd132828	-0.035926968
96	0x3de8a80b	0.11360177
97	0xbd07e63e	-0.03317856
98	0x3d33c66c	0.0438904
99	0x3d36b81f	0.044609185
100	0xbdc93603	-0.09824755
101	0xbe36e874	-0.17862111
102	0x3dc61bae	0.09673248
103	0xbd8192c4	-0.063268214
104	0xbd456d54	-0.048199967
105	0x3daca9c3	0.08430817
106	0xbd9206ef	-0.07130229
107	0xbd60d421	-0.054889802
108	0x3da3857c	0.079844445
109	0xbdb29af6	-0.08720963
110	0x3caeae74	0.02132342
111	0x3d2bb731	0.04192275
112	0xbb1b5435	-0.0023701314
113	0x3d3d2195	0.046174604
114	0x3de8543d	0.11344192
115	0xbde6c79d	-0.11268542
116	0x3aaaaa67	0.0013020755
117	0xbd67b229	-0.05656639
118	0x3d0a4cb3	0.033764552
119	0x3d6ff385	0.058581848
120	0xbe0e4c68	-0.13896334
121	0x3977cbc2	0.00023631661
122	0x3c11b6bd	0.008893666
123	0xbdf7ada9	-0.1209367
124	0x3e71d1ae	0.23615143
125	0xbd8b8bf4	-0.06813803
126	0x3d7b7560	0.061391234
127	0x3d584639	0.052801345
128	0xbcb75e9c	-0.02238398
129	0x3d940ef1	0.07229412
130	0xbb46eb65	-0.0030352708
131	0x3d31455f	0.043279048
132	0x3cc5fa97	0.024167342
133	0x3e3c7fb1	0.18408085
134	0xbd98454d	-0.07435093
135	0xbca39c83	-0.019972092
136	0x3d9743bf	0.073859684
137	0x3e250a90	0.1611731
138	0xbca5d626	-0.020243715
139	0x3da3efb5	0.08004705
140	0xbe628700	-0.22121811
141	0x3d7f3877	0.06230971
142	0xbd2d9479	-0.042377923
143	0x3de0c324	0.1097472
144	0x3de090cf	0.1096512
145	0x3df47b9f	0.11937641
146	0x3c2dc0b4	0.010605026
147	0xbcdfa4c4	-0.027300246
148	0xbdd2fbac	-0.10301909
149	0x3d4249b6	0.047433577
150	0x3d94154d	0.07230625
151	0x3daf54a5	0.085610665
152	0x3cf0a034	0.029373266
153	0x3d59342c	0.05302827
154	0xbd01e312	-0.03171069
155	0xbb4ca90f	-0.0031228696
156	0xbe0d0894	-0.13772804
157	0xbddab35d	-0.10678742
158	0x3c8bd88c	0.017071031
159	0x3c86e58f	0.016466884
160	0x3de76580	0.112986565
161	0xbc2fbb70	-0.010725841
162	0x3d0c2938	0.034218997
163	0xbd171b95	-0.03689154
164	0x3c7b9fa3	0.015357885
165	0xbdc9fb4a	-0.09862383
166	0xbd458939	-0.04822657
167	0xbd6f182a	-0.058372654
168	0xbd90fff7	-0.070800714
169	0xbdfb7419	-0.12278003
170	0xbdc669bf	-0.09688138
171	0x3dbfe32a	0.093695
172	0x3e68eae2	0.2274585
173	0x3cedd892	0.029033933
174	0xbd71919a	-0.058976747
175	0x3d1bfc82	0.038082607
176	0xbd4e338f	-0.05034214
177	0xbdb290f0	-0.08719051
178	0x3c90e4b4	0.01768718
179	0xbc4eff95	-0.012634178
180	0x3d303c10	0.04302603
181	0x3d126b66	0.035746954
182	0x3e373e79	0.17894925
183	0xbd884b3e	-0.06654976
184	0x3d4f71b0	0.05064553
185	0x3d8678d9	0.065660186
186	0xbda51d67	-0.08062249
187	0x3d5cc50c	0.053898856
188	0x3d413135	0.047166068
189	0xbd9810da	-0.07425089
190	0xbd4e5551	-0.050374333
191	0x3d4d7155	0.05015691
192	0x3d4dae59	0.0502151
193	0x3ba2057f	0.004944503
194	0xbd5b9069	-0.053604517
195	0x3d4f05ec	0.050542757
196	0xbdcd68af	-0.100297324
197	0xbdce5453	-0.10074677
198	0xbd377757	-0.044791546
199	0xbc69018e	-0.014221562
200	0x3cbc6e72	0.023001883
201	0xbd775711	-0.060385767
202	0x3d29c94e	0.041451745
203	0xbd4fd484	-0.05073978
204	0x3dfc7cc3	0.12328484
205	0xbcf21832	-0.029552553
206	0x3d1f04f9	0.0388231
207	0xbc002e93	-0.007823604
208	0x3cb7370b	0.022365114
209	0xbe193527	-0.14961682
210	0x3d710ef5	0.058852155
211	0xbc7516cd	-0.014959049
212	0x3d1b4579	0.03790805
213	0x3d07ef93	0.03318746
214	0x3bb3056c	0.005463293
215	0x3d7c0929	0.061532173
216	0x3dc41fee	0.095764026
217	0xbd6a8b3a	-0.057261683
218	0xbd558512	-0.05212886
219	0xbd93026d	-0.07178197
220	0xbe05e2c5	-0.13074787
221	0x3b15047f	0.0022738276
222	0x3d24a1b4	0.040193275
223	0xbd379d7b	-0.04482792
224	0xbd72c470	-0.05926937
225	0x3cdc4912	0.026890311
226	0x3da0ddbf	0.07854795
227	0x3e02493e	0.12723252
228	0x3ca8d71a	0.02061038
229	0x3deba2ab	0.11505636
230	0xbd375a73	-0.044763993
231	0xbd054d66	-0.032544516
232	0x3d0df6ea	0.034659304
233	0xbc926d05	-0.01787425
234	0xbe0cd35b	-0.137525
235	0xbbf61077	-0.007509287
236	0x3bbbb6c9	0.005728577
237	0xbe4d3871	-0.20041062
238	0xbd58cb85	-0.052928466
239	0x3ceef160	0.029167831
240	0xbd6033c1	-0.054736856
241	0xbd1559ad	-0.036462475
242	0xbd5ef9a3	-0.05443729
243	0x3da012c7	0.078160815
244	0xbc096b38	-0.008387379
245	0x3ce266b7	0.027636869
246	0x3d61b488	0.05510381
247	0x3d839346	0.064245746
248	0x3e594f55	0.21221669
249	0xbcf076a7	-0.029353453
250	0x3d4bdc0e	0.049770407
251	0x3d169dda	0.036771633
252	0xbda3d423	-0.07999446
253	0x3d83191c	0.064012736
254	0x3b51855d	0.003197036
255	0x3d85173c	0.06498572

network.4.bias f4 [64]
0	0x3798f8fe	1.8235758e-05
1	0x362c9630	2.5717418e-06
2	0xb6e2a398	-6.7543697e-06
3	0x378a7955	1.6507382e-05
4	0x35c8a55a	1.4949285e-06
5	0x3599f20d	1.1469834e-06
6	0x36fb023c	7.480643e-06
7	0xb65051f0	-3.104211e-06
8	0x37134ba4	8.779494e-06
9	0xb6c45064	-5.850614e-06
10	0xb73efe2a	-1.138406e-05
11	0x372f7b81	1.0459568e-05
12	0xb768df3a	-1.3880252e-05
13	0x370bc7e7	8.331589e-06
14	0xb82318ae	-3.8885213e-05
15	0xb708c6ff	-8.152564e-06
16	0xb76c371c	-1.4079527e-05
17	0xb6c7bbc6	-5.952522e-06
18	0xb7709194	-1.433901e-05
19	0xb6973a10	-4.50691e-06
20	0x363e623c	2.8369386e-06
21	0x35dca91e	1.6440497e-06
22	0xb5d1e374	-1.5637911e-06
23	0x37cf8b06	2.474106e-05
24	0xb618d5f2	-2.2774298e-06
25	0x386046b0	5.3471595e-05
26	0x34d13bc0	3.8972757e-07
27	0xb5c3b5cd	-1.4581543e-06
28	0xb75152cc	-1.2476648e-05
29	0xb60b2209	-2.0732425e-06
30	0xb7a9b152	-2.0228941e-05
31	0xb6b969dc	-5.5257533e-06
32	0xb6ae73e0	-5.1990937e-06
33	0x37882343	1.6228883e-05
34	0x379af5bb	1.8472658e-05
35	0xb7550b58	-1.26984305e-05
36	0xb6e142f3	-6.7133165e-06
37	0xb5c2aaa7	-1.4503793e-06
38	0x36a1f084	4.8261736e-06
39	0x36f58a1f	7.3176484e-06
40	0xb597aab8	-1.1300062e-06
41	0x37228663	9.687242e-06
42	0xb7b3d4d8	-2.1437576e-05
43	0x35012762	4.8113554e-07
44	0xb709e541	-8.219214e-06
45	0x372e1164	1.0375257e-05
46	0x376a8f1a	1.3980805e-05
47	0xb66d059b	-3.5319015e-06
48	0x368480fa	3.9489214e-06
49	0x37856e9f	1.5906347e-05
50	0x36013cc4	1.9257868e-06
51	0x373f86e1	1.1415891e-05
52	0x37ad36c7	2.0648715e-05
53	0xb7a59300	-1.9737985e-05
54	0x362734c2	2.4915648e-06
55	0xb62ee6e5	-2.6062419e-06
56	0xb717d1af	-9.049122e-06
57	0xb4e5b1a0	-4.2783813e-07
58	0x371ef721	9.475073e-06
59	0x35113300	5.4090924e-07
60	0xb5db9473	-1.6359976e-06
61	0xb7cb194f	-2.4211271e-05
62	0xb6871982	-4.026283e-06
63	0x36dfd8b6	6.6711464e-06

network.5.weight f4 [64]
0	0x3f794b63	0.97380656
1	0x3f845a7d	1.0340115
2	0x3f67a0c7	0.904797
3	0x3f5a1c93	0.8519985
4	0x3f4b6192	0.79445755
5	0x3f4cb099	0.79956967
6	0x3f52f7fd	0.8240965
7	0x3f7b5f7c	0.9819257
8	0x3f616c1e	0.880556
9	0x3f798e6f	0.9748296
10	0x3f81ca4a	1.0139859
11	0x3f814b20	1.0101051
12	0x3f5a2ae6	0.8522171
13	0x3f71da43	0.94473666
14	0x3f8de14d	1.1084381
15	0x3f6371f8	0.8884578
16	0x3f83e2fa	1.0303643
17	0x3f780fe9	0.96899277
18	0x3f53e651	0.8277331
19	0x3f8605aa	1.0470479
20	0x3f6b5d3c	0.9193914
21	0x3f66eb97	0.9020323
22	0x3f5eeb1b	0.8707749
23	0x3f7f1bda	0.99651873
24	0x3f584b30	0.8448973
25	0x3f74e9d9	0.95669323
26	0x3f671ea1	0.9028111
27	0x3f5f54f5	0.8723901
28	0x3f88d0c3	1.0688709
29	0x3f55c6f7	0.8350672
30	0x3f5cc0fc	0.8623197
31	0x3f846d1b	1.0345796
32	0x3f6feb97	0.93718857
33	0x3f5d8849	0.8653608
34	0x3f6efbc0	0.9335289
35	0x3f7dc72f	0.99132055
36	0x3f50adf9	0.8151546
37	0x3f71ea3b	0.9449803
38	0x3f7531af	0.95778936
39	0x3f57e898	0.84339285
40	0x3f57a3d5	0.8423436
41	0x3f56f4dd	0.8396738
42	0x3f534385	0.825249
43	0x3f703b40	0.9384041
44	0x3f677c7a	0.9042431
45	0x3f8d3dc7	1.1034478
46	0x3f830487	1.0235757
47	0x3f61f107	0.88258404
48	0x3f64c9f9	0.89370686
49	0x3f3eb1e0	0.74490166
50	0x3f3b4804	0.7315676
51	0x3f73ed98	0.95284414
52	0x3f7275ac	0.94710803
53	0x3f7b9e99	0.98288876
54	0x3f5a1b0a	0.8519751
55	0x3f69542b	0.91144055
56	0x3f856723	1.04221
57	0x3f5d1927	0.86366504
58	0x3f6db794	0.92858243
59	0x3f5466e0	0.82969475
60	0x3f41ce6d	0.75705606
61	0x3f843b77	1.0330647
62	0x3f6534b7	0.8953356
63	0x3f631361	0.88701445

network.5.bias f4 [64]
0	0xbdf6caaa	-0.12050374
1	0x3e42a7c0	0.19009304
2	0xbda8c5be	-0.08240841
3	0x3ce77986	0.02825619
4	0xbd502e67	-0.050825503
5	0xbdd01b85	-0.10161499
6	0xbc104af3	-0.008806932
7	0xbc9e64cd	-0.019335175
8	0xbe0ad2de	-0.13557002
9	0x3d8c536b	0.06851848
10	0xbdaa5dc0	-0.08318663
11	0xbd83a0df	-0.06427168
12	0x3baf4132	0.005348348
13	0xbe310702	-0.1728783
14	0x3a985fea	0.0011625264
15	0xbd8a026a	-0.06738742
16	0x3c2e0fea	0.010623911
17	0xbe0716de	-0.13192317
18	0xbd88d450	-0.066811204
19	0xbc9435ed	-0.01809212
20	0xbda07061	-0.078339346
21	0xbe0597b2	-0.13046148
22	0xbdbb7460	-0.09153056
23	0xbe130eca	-0.1436111
24	0xbe12f358	-0.14350641
25	0x3cf290b8	0.029610023
26	0x3cbdc3cb	0.02316465
27	0xbdf5a6ef	-0.11994731
28	0xbdbdea04	-0.092731506
29	0xbe867f7a	-0.26269132
30	0x3cb2fedc	0.021850042
31	0xbcdd82bc	-0.027039878
32	0xbd6b6700	-0.057471275
33	0x3c07c4cf	0.008286669
34	0xbdb741eb	-0.0894812
35	0xbe92de38	-0.28685164
36	0xbdd9552d	-0.10611949
37	0xbd9495d9	-0.07255144
38	0xbe50a4fe	-0.2037544
39	0xbd812521	-0.0630591
40	0xbe27eae3	-0.16398196
41	0xbdee503b	-0.116363965
42	0xbbb28930	-0.005448483
43	0xbd7ab8b6	-0.06121131
44	0x3d3a1e20	0.045438886
45	0xbd708a14	-0.05872543
46	0xbd8ef3ed	-0.06980119
47	0xbd997526	-0.074930474
48	0xbe6a3c10	-0.22874475
49	0xbe32b1c3	-0.17450623
50	0xbe8436fd	-0.25823203
51	0xbe227a54	-0.15866977
52	0xbdf02246	-0.11725287
53	0xbe0a4ea9	-0.13506569
54	0xbd3782e6	-0.04480257
55	0xbd1cdc31	-0.03829593
56	0xbe97c06f	-0.29639003
57	0xbdf0ced9	-0.11758203
58	0xbe148a59	-0.145059
59	0x3c014407	0.007889754
60	0xbd991b2c	-0.07475886
61	0x3cd66814	0.026172675
62	0x3debbd14	0.11510673
63	0x3b7abfcb	0.003826129

network.5.running_mean f4 [64]
0	0xbf09c1cf	-0.53811353
1	0x3e35ad57	0.17741905
2	0x3e51358c	0.20430583
3	0x3e8f3198	0.27967525
4	0x3ea21385	0.31655517
5	0x3f04d226	0.5188316
6	0x3efc658b	0.4929622
7	0xbee9ed93	-0.45689067
8	0x3de0e27d	0.10980699
9	0xbef95cab	-0.48703513
10	0xbfb4335e	-1.4078176
11	0xbf761aa0	-0.96134377
12	0xbb380bb0	-0.0028083138
13	0xbf94087d	-1.156509
14	0xbf6a0356	-0.9141134
15	0xbe001251	-0.12506987
16	0xbf63fe1d	-0.8905962
17	0xbf97e97c	-1.1868129
18	0xbf339c49	-0.7016035
19	0xbf8a3407	-1.0797127
20	0x3db21234	0.08694878
21	0x3f1bff07	0.60936016
22	0x3ec41902	0.3830033
23	0xbf42b134	-0.7605164
24	0x3e381ecd	0.179805
25	0xbf6e4ad0	-0.93082905
26	0x3dab6582	0.083689705
27	0xbed39a6b	-0.4132875
28	0xbf4075e4	-0.75179887
29	0x3ebd8621	0.37016395
30	0xbf2f526e	-0.6848515
31	0xbf5c44b0	-0.8604231
32	0x3eb0bdcb	0.345198
33	0xbecb62ba	-0.3972376
34	0xbf81ef2c	-1.0151114
35	0xbf15ca1c	-0.5851152
36	0xbf4cfb29	-0.8007074
37	0x3d8d28d3	0.06892552
38	0xbef399ef	-0.4757838
39	0xbf88b320	-1.0679665
40	0x3eda3553	0.42618808
41	0xbe72f5fb	-0.23726647
42	0x3f1c6dae	0.6110486
43	0xbf21f52b	-0.6326472
44	0xbe58809e	-0.21142814
45	0xbf91a64b	-1.1378874
46	0xbf56a5d8	-0.8384681
47	0x3f4b4cc1	0.7941399
48	0x3e5c654d	0.21523018
49	0x3f58b0f0	0.84644985
50	0x3eab891c	0.33503044
51	0xbf338804	-0.7012942
52	0xbf5e1608	-0.86752367
53	0x3eed6335	0.4636475
54	0xbcd5e41e	-0.026109751
55	0xbe13c1d2	-0.14429405
56	0xbe78e26a	-0.2430512
57	0xbd7c2be6	-0.061565302
58	0xbd0dd1b6	-0.034623824
59	0x3d48b462	0.04900015
60	0x3ee16d1b	0.44028553
61	0xbfa4be04	-1.2870488
62	0x3ee918fe	0.4552688
63	0xbeb994fe	-0.36246485

network.5.running_var f4 [64]
0	0x3f655203	0.89578265
1	0x3fb36ea6	1.4018142
2	0x3f00c76b	0.5030429
3	0x3f10b152	0.5652057
4	0x3f4631a3	0.7741949
5	0x3f47d000	0.7805176
6	0x3f733342	0.9500009
7	0x3f84e533	1.0382446
8	0x3f8637de	1.0485799
9	0x3f6e38b6	0.93055284
10	0x3f61900b	0.8811042
11	0x40003a73	2.0035675
12	0x3ee62f0e	0.44957775
13	0x3f5f35c6	0.87191427
14	0x3fa62e7b	1.2982935
15	0x3ed25691	0.4108167
16	0x3f818aa0	1.012043
17	0x3eff7910	0.4989705
18	0x3eae8e09	0.3409274
19	0x3f78a72b	0.9713008
20	0x3f3bfcf2	0.7343284
21	0x3ef6b914	0.48188078
22	0x3ee6795c	0.45014465
23	0x3fcbaafe	1.5911558
24	0x3fbcf46e	1.4762094
25	0x3f738af1	0.9513388
26	0x3f361f28	0.7114129
27	0x3f089d55	0.5336507
28	0x3fe10fba	1.7582924
29	0x3f34dcc7	0.7064938
30	0x3f206cb4	0.6266587
31	0x3f7eb8a3	0.99500483
32	0x3f00f9e8	0.50381327
33	0x3f20896e	0.627097
34	0x3f89ad44	1.0756001
35	0x3f66aee5	0.9011062
36	0x3ecb0a7b	0.39656433
37	0x3f1c01c3	0.6094019
38	0x3fc3578c	1.5261092
39	0x3f619bba	0.88128245
40	0x3f209150	0.6272173
41	0x3ea867ac	0.32891595
42	0x3ec95e3f	0.39329717
43	0x3f653e7a	0.89548457
44	0x3fb9765a	1.4489243
45	0x3f856ad3	1.0423225
46	0x3f613208	0.87966967
47	0x3f682acf	0.9069032
48	0x3f624801	0.8839112
49	0x3f194db4	0.5988419
50	0x3f5a5dfa	0.85299647
51	0x3fdb44d8	1.7130384
52	0x3f199934	0.59999394
53	0x3fab3e5c	1.3378406
54	0x3ef58c05	0.4795839
55	0x3edc1a66	0.4298889
56	0x3fc2abe9	1.5208713
57	0x3f20a932	0.6275817
58	0x3f3be214	0.7339184
59	0x3f75d4c9	0.9602781
60	0x3f0ad9b5	0.54238445
61	0x3facea1d	1.3508946
62	0x3fce479c	1.6115603
63	0x3f176f82	0.5915452

network.8.weight f4 [32, 64]
0	0xbcea4c8f	-0.02860096
1	0xbe5c8524	-0.21535164
2	0xbd59682e	-0.05307787
3	0x3dd1bcdf	0.102411024
4	0xbd5a4061	-0.053284053
5	0x3d892f66	0.06698494
6	0x3cbaf362	0.022821132
7	0x3e174d3d	0.14775558
8	0x3defacc3	0.117028736
9	0x3cbbf41b	0.022943547
10	0xbe0668c8	-0.13125908
11	0x3cd92c8c	0.0265105
12	0x3d6708ad	0.05640476
13	0x3d38a66c	0.045080587
14	0xbe103107	-0.14081202
15	0xbd3f8834	-0.046760753
16	0xbc8e8817	-0.017398877
17	0xbdecf713	-0.11570563
18	0x3bf77f3e	0.0075530102
19	0xbe43d85a	-0.191255
20	0xbd5f3f98	-0.054504007
21	0xbd3f25ed	-0.04666703
22	0xbcb53431	-0.022119613
23	0x3dbb4eca	0.09145887
24	0xbd74ec0c	-0.059795424
25	0xbd1371ad	-0.03599708
26	0x3d3dd03b	0.046341162
27	0xbb8146be	-0.0039452007
28	0x3d06322f	0.032762703
29	0x3df5effb	0.12008663
30	0x3dad24cf	0.08454286
31	0xbda99374	-0.082800776
32	0x3e03c407	0.12867747
33	0xbda9b40e	-0.08286296
34	0x3dbb4ee4	0.091459066
35	0xbdd25d38	-0.10271686
36	0xbdf89bde	-0.12139104
37	0xbd874714	-0.06605354
38	0x3db66752	0.089064255
39	0xbde59ea0	-0.11211896
40	0xbca5ff0d	-0.02026322
41	0x3db6abd6	0.08919494
42	0x3df9ab10	0.12190831
43	0xbd9f8c42	-0.07790424
44	0x3d93969a	0.07206459
45	0xbe3085db	-0.17238562
46	0xbd00bcf6	-0.031430207
47	0xbe083dc6	-0.13304815
48	0x3defd35b	0.11710235
49	0x3da1bea3	0.07897689
50	0x3c3bc48b	0.011460434
51	0x3e2d84f3	0.16945247
52	0xbe39b96c	-0.18137139
53	0xbcf406a4	-0.029788323
54	0x3d2c9b43	0.042140257
55	0xbdc9cf40	-0.09853983
56	0x3e6aa532	0.2291458
57	0x3e0b2e8e	0.13591978
58	0x3d46e1b4	0.04855509
59	0xbd74acf6	-0.05973526
60	0x3cb3dd3d	0.02195608
61	0xbdfc83bd	-0.123298146
62	0x3dba2e61	0.09090877
63	0xbe07bfb5	-0.13256724
64	0x3dd269fd	0.10274122
65	0x3ccb88a7	0.024845434
66	0x3ce07f4d	0.027404452
67	0xb9d208c7	-0.0004006086
68	0xbd0db10e	-0.03459268
69	0xbbbd2901	-0.0057727103
70	0xbdd69b20	-0.104788065
71	0xbe197075	-0.14984305
72	0x3dd3c228	0.10339767
73	0xbe19d973	-0.15024357
74	0xbdce4895	-0.10072438
75	0xbd8a9c09	-0.067680426
76	0x3c6ccc86	0.014453059
77	0xbe1d3951	-0.15353896
78	0xbe551899	-0.20810165
79	0x3d73230e	0.059359603
80	0x3d9adcdc	0.07561657
81	0x3cff4af5	0.031163672
82	0x3b434768	0.00297972
83	0x3decb5e5	0.11558131
84	0x3c134903	0.008989575
85	0x3da8ed29	0.0824836
86	0xbd3a1a57	-0.045435276
87	0xbdd75280	-0.105137825
88	0x3cef9f84	0.029250868
89	0x3e25c512	0.16188458
90	0xbe062e57	-0.13103615
91	0x3dc4f53f	0.096170895
92	0xbe1d2794	-0.15347129
93	0x3d5f14be	0.05446314
94	0xbd7846e7	-0.060614493
95	0xbe136b9f	-0.14396523
96	0xbd66a9ab	-0.05631415
97	0x3da365b2	0.07978381
98	0xbe578b96	-0.21049342
99	0x3b961cb2	0.0045810575
100	0x3c67edc1	0.014155806
101	0xbd58720e	-0.052843146
102	0x3db771eb	0.08957275
103	0x3c825eee	0.015914407
104	0x3d535952	0.051598854
105	0x3c8db62b	0.017298779
106	0x3c9f5d97	0.019453807
107	0xbabb1c04	-0.0014275317
108	0x3c7486f4	0.014924753
109	0xbe6f14cf	-0.23347782
110	0x3e1826b9	0.14858522
111	0x3d0dd4ee	0.034626894
112	0x3dac37e0	0.08409095
113	0xbd5d5a9c	-0.05404149
114	0xbdcf5e0f	-0.10125362
115	0xbd311bfd	-0.043239582
116	0xbd0a1aa9	-0.03371683
117	0x3d3aa530	0.04556769
118	0x3cf1b9fb	0.029507628
119	0xbc992cf9	-0.018698202
120	0xbd73fdc5	-0.059568185
121	0x3cbfee82	0.02342916
122	0x3dcd2fc9	0.1001888
123	0xbd6bf511	-0.05760676
124	0xbc855b5c	-0.016278915
125	0x3b8f0906	0.0043650893
126	0xbdcd13c2	-0.10013534
127	0x3d439a2e	0.04775446
128	0x3d89f901	0.06736947
129	0xbdfc73c1	-0.12326766
130	0xbdeaea82	-0.1147051
131	0x3d209e29	0.039213333
132	0x3c97beed	0.018523658
133	0xbce1fc91	-0.027586253
134	0xbdb4a409	-0.0882035
135	0xbdf4a608	-0.119457304
136	0xbb31c9eb	-0.002712841
137	0x3b98e557	0.0046660113
138	0x3d727058	0.05918917
139	0xbe7d75a2	-0.24751905
140	0xbd697d62	-0.05700434
141	0x3e28d4c7	0.16487418
142	0xbd973c44	-0.07384542
143	0xbda74061	-0.08166576
144	0xbe17ed3d	-0.14836593
145	0x3c48be11	0.012252347
146	0xbd6eb81f	-0.05828106
147	0xbdd797d2	-0.10527004
148	0x3d3cfa60	0.046137214
149	0xbc178660	-0.009248346
150	0xbdc7a48b	-0.09748181
151	0xbdf8f3bc	-0.12155864
152	0x3cd6e20f	0.02623084
153	0xbc861e59	-0.016371893
154	0xbdf41af6	-0.11919205
155	0xbdb2eff4	-0.08737174
156	0xbe93de7e	-0.28880686
157	0xbe00f8ad	-0.12594862
158	0x3e0d84dd	0.13820215
159	0xbe5422db	-0.20716421
160	0xbda013fa	-0.0781631
161	0xbd258cec	-0.040417597
162	0xbd9bf631	-0.07615317
163	0x3ccf05a3	0.025271242
164	0x3d486297	0.048922148
165	0xbd953b3e	-0.0728669
166	0xbdb36d98	-0.08761138
167	0xbdc0476e	-0.09388624
168	0x3c696452	0.01424511
169	0x3cefb924	0.029263087
170	0xbb6c5143	-0.0036059178
171	0xbc89e671	-0.016833516
172	0xbe2678fd	-0.16257091
173	0xbd41190f	-0.04714304
174	0xbc976fcd	-0.018485928
175	0x3c88eda3	0.016714877
176	0xbbf482fd	-0.007461904
177	0xbd4eb223	-0.050462853
178	0xbc64d9a9	-0.01396791
179	0xbe674cb5	-0.22587855
180	0x3d8bdba7	0.06829005
181	0xbd147fe6	-0.036254786
182	0xbd143374	-0.036181882
183	0xbd0cfd30	-0.034421146
184	0xbe0b622a	-0.13611665
185	0x3d4c3801	0.049858097
186	0x3dc7f4f4	0.09763518
187	0xbd7e3d20	-0.062070012
188	0x3bb72d1c	0.0055900943
189	0xbc116e85	-0.008876448
190	0xbce7a725	-0.028277943
191	0x3caa5326	0.020791601
192	0x3e0b8cf5	0.1362799
193	0xbe4d94c1	-0.20076276
194	0x3ce8f905	0.028439054
195	0x3d0f4d9a	0.034986116
196	0xbd83cac1	-0.064351566
197	0x3d980887	0.074235015
198	0xbd1e5935	-0.038659293
199	0xbe12a42d	-0.1432044
200	0xbcc3cf8a	-0.023902673
201	0xbe48ba23	-0.19602256
202	0xbdbe2fa4	-0.092864305
203	0xbdae839c	-0.08521196
204	0xbdd44b72	-0.103659526
205	0x3e09aec4	0.13445574
206	0xbe7a3dee	-0.24437687
207	0x3da3941b	0.07987233
208	0xbbdb9e80	-0.0067022443
209	0x3e096bd0	0.13420033
210	0xbd3c3b02	-0.04595471
211	0x3ce19c38	0.027540311
212	0x3da4107f	0.08010959
213	0x3d81c733	0.06336822
214	0x3d7ec12d	0.062195946
215	0xbe0237e0	-0.12716627
216	0xbd3bb2f2	-0.045824952
217	0x3d6a385c	0.057182655
218	0xbd91f5b0	-0.07126939
219	0x3d936816	0.07197587
220	0xbe065788	-0.13119328
221	0xbdc12d03	-0.094324134
222	0x3cd3cca0	0.025854409
223	0xbe535242	-0.20636848
224	0xbcbab7ab	-0.022792658
225	0x3d4c2eda	0.04984937
226	0xbde1614e	-0.110048875
227	0x3dfce447	0.12348228
228	0xbe2f87d5	-0.1714166
229	0xbccfd238	-0.025368795
230	0xbd973852	-0.07383789
231	0xbd8dbf6d	-0.06921277
232	0xbcee6650	-0.02910152
233	0xbc63bcf7	-0.013900033
234	0x3acb0409	0.0015488873
235	0xbdf0555c	-0.11735031
236	0x3d74d5c9	0.059774194
237	0xbd3a1798	-0.045432657
238	0xbd9ee7b5	-0.07759038
239	0xbcdd3cad	-0.027006472
240	0x3c9644d2	0.018343363
241	0xbd43a46c	-0.047764227
242	0xbce3dd5d	-0.027815515
243	0xbdeafaf8	-0.1147365
244	0x3e275387	0.16340457
245	0x3d8492bb	0.06473299
246	0xbe0a5013	-0.13507108
247	0x3c0b6bf7	0.008509628
248	0x3cdb81b6	0.02679525
249	0xbde438c2	-0.11143638
250	0x3d8f3abe	0.06993626
251	0x3cae38e1	0.021267356
252	0x3d52b588	0.051442653
253	0x3d358c0c	0.044323012
254	0xbc29e06c	-0.010368448
255	0xbe4ab897	-0.19796978

network.8.bias f4 [32]
0	0x36386172	2.7474857e-06
1	0x366e93c4	3.5550775e-06
2	0x36ac27f7	5.130652e-06
3	0x366fb082	3.5716516e-06
4	0x36a203d2	4.828421e-06
5	0xb8284a38	-4.0123443e-05
6	0x362fffd8	2.6225953e-06
7	0x36a0db4d	4.7939016e-06
8	0xb7e87f50	-2.771584e-05
9	0xb6d31ef1	-6.291892e-06
10	0x37b22295	2.1235357e-05
11	0xb58c5490	-1.0455424e-06
12	0x371a46c2	9.19559e-06
13	0xb734ad42	-1.0769176e-05
14	0xb7c8df1f	-2.3945757e-05
15	0x3731a3a4	1.0588123e-05
16	0xb7ab3b5e	-2.0412434e-05
17	0xb6ab6d2f	-5.1089078e-06
18	0xb80ea30a	-3.400728e-05
19	0x36872ae6	4.0283076e-06
20	0xb5b38d00	-1.3377576e-06
21	0xb6912c0e	-4.3264654e-06
22	0x36d8aac1	6.45718e-06
23	0x36d9c964	6.490549e-06
24	0x382a5c3d	4.0617062e-05
25	0x369c1935	4.652097e-06
26	0x3781fc36	1.5495443e-05
27	0xb6949cbb	-4.4289895e-06
28	0xb60e19a7	-2.117458e-06
29	0x367c447e	3.7590794e-06
30	0xb6433a7c	-2.9091307e-06
31	0xb800484c	-3.058491e-05

network.9.weight f4 [32]
0	0x3f804e31	1.0023862
1	0x3f308421	0.6895161
2	0x3f817f04	1.0116887
3	0x3f6f0c1b	0.93377846
4	0x3f7d4b35	0.9894288
5	0x3f88e93f	1.0696181
6	0x3f90c9e6	1.1311615
7	0x3f7aa18c	0.9790275
8	0x3f8bf359	1.0933639
9	0x3f812eec	1.0092444
10	0x3f8412c9	1.0318233
11	0x3f87d607	1.0612191
12	0x3f4cbbae	0.79973876
13	0x3f87e998	1.0618162
14	0x3f957d99	1.1678954
15	0x3f780324	0.9687979
16	0x3f835f8e	1.0263536
17	0x3f7b29ed	0.9811085
18	0x3f937496	1.1519954
19	0x3f80612d	1.0029656
20	0x3f9751ab	1.1821798
21	0x3f7fe609	0.9996038
22	0x3f845478	1.0338278
23	0x3f89814d	1.0742584
24	0x3f88f4fd	1.0699764
25	0x3f531c8d	0.8246544
26	0x3f85079d	1.0392948
27	0x3f7a3b01	0.9774628
28	0x3f75dff4	0.9604485
29	0x3f82c036	1.0214908
30	0x3f818ecb	1.0121702
31	0x3f86eb3c	1.0540538

network.9.bias f4 [32]
0	0xbd514d5a	-0.05109916
1	0xbdf38351	-0.11890281
2	0xbc961fd7	-0.01832573
3	0xbe6c6ae2	-0.23087648
4	0xbde4fbd8	-0.11180848
5	0x3df214ed	0.118203975
6	0xbca5021d	-0.02014261
7	0xbdd993c7	-0.106238894
8	0x3daa6d15	0.08321587
9	0xbdcee90e	-0.101030454
10	0x3ce6c103	0.028168207
11	0x3d1c2451	0.03812057
12	0xbc9e1705	-0.019298086
13	0xbe23c2a6	-0.15992221
14	0xbcf7ad13	-0.030233895
15	0xbded419b	-0.11584779
16	0xbe05d76c	-0.13070458
17	0xbdced375	-0.10098926
18	0xbd6bccb1	-0.057568256
19	0x3c177984	0.00924528
20	0xbc3c3b17	-0.0114886975
21	0xbc962cdc	-0.018331937
22	0x3dce5799	0.10075302
23	0xbdc101b0	-0.0942415
24	0xbe33d53a	-0.17561808
25	0x3d3a2ece	0.045454793
26	0x3c5fc5c4	0.013657991
27	0xbd9aa0a7	-0.07550173
28	0xbd6808cd	-0.056649018
29	0xbd9de07d	-0.07708833
30	0xbd18549f	-0.037190076
31	0xbdbda0bc	-0.09259173

network.9.running_mean f4 [32]
0	0xbe8421d5	-0.25807062
1	0xbe8015d2	-0.25016648
2	0xbf4f286c	-0.80921054
3	0xbf06d284	-0.5266497
4	0x3e904263	0.2817565
5	0xbf7c6789	-0.9859548
6	0xbf4faa4e	-0.8111924
7	0x3e36e643	0.17861275
8	0xbf21e3ad	-0.6323803
9	0x3d88379c	0.06651232
10	0xbf2d2815	-0.67639285
11	0xbf36fcb4	-0.71479344
12	0xbe905047	-0.28186247
13	0xbf525a00	-0.8216858
14	0xbed593ab	-0.41714224
15	0x3e355470	0.17707992
16	0xbf369884	-0.7132647
17	0x3e7967d2	0.2435601
18	0xbf16693f	-0.5875434
19	0xbeda3373	-0.42617378
20	0xbf1cf8f7	-0.6131739
21	0x3d899e5e	0.06719659
22	0xbf55c638	-0.8350558
23	0xbf83bc38	-1.0291815
24	0xbf56df40	-0.839344
25	0xbee1129e	-0.43959516
26	0xbf2e455d	-0.6807459
27	0xbf4225d5	-0.7583898
28	0xbe97b926	-0.29633445
29	0x3e552f87	0.20818911
30	0xbf4d299e	-0.8014163
31	0xbf4f809a	-0.81055605

network.9.running_var f4 [32]
0	0x3ef507fe	0.4785766
1	0x3e8e33cf	0.27773902
2	0x3eb3d3ae	0.35122436
3	0x3efb5e21	0.49095252
4	0x3f4c0acb	0.7970397
5	0x3eac4baa	0.33651477
6	0x3e9e764e	0.30949634
7	0x3f138cfe	0.5763701
8	0x3e99b8d9	0.3002384
9	0x3f1724fc	0.5904081
10	0x3f1f383e	0.62195194
11	0x3f0f7a09	0.56045586
12	0x3eafd510	0.3434224
13	0x3ee5cc92	0.44882637
14	0x3f03c81e	0.5147723
15	0x3f25deb9	0.6479297
16	0x3e9b0e7f	0.30284497
17	0x3f223d6c	0.6337497
18	0x3f0ab9d1	0.54189783
19	0x3ebac7b4	0.36480486
20	0x3ee3639c	0.44411933
21	0x3ed534e5	0.41641918
22	0x3ee392ed	0.44448033
23	0x3ed78edc	0.4210118
24	0x3f092b58	0.5358176
25	0x3e839af1	0.25704148
26	0x3e5cd76b	0.2156655
27	0x3ee6fa12	0.45112664
28	0x3f30a8d0	0.6900759
29	0x3ee5039e	0.44729322
30	0x3f0a748d	0.5408409
31	0x3ec10a3c	0.3770312
