notebooks/best_model.pth (torch, 60770 bytes, 19 tensors)

network.0.weight f4 [128, 15]
00000000: 0dd5 443d 0df9 293c e686 123e ddfc 3b3e
00000010: 9b33 7e3d 1393 4c3e 1f20 373e 93b6 033e
00000020: 7c98 e83d ae68 adbc efde f03d 5b9f 523c
00000030: df5d e2bd 1b43 40bd 8508 bb3d 97b0 123e
00000040: 5135 16bd c46f d83d 7cc3 1dbe ddfa 6fbd
00000050: f57b c3bc 2f2f d7bd 93bd 433e 465e 40be
00000060: c4aa 5c3e 675f 04be 95da 983d 2001 3c3e
00000070: 9b82 1cbe 355b b93d d284 533c c537 c93c
00000080: a1da c33d 404a 09be e169 92bd 8b7d a4bd
00000090: b3be 703e 6671 14be 60da 243e 6f50 e8bd
000000a0: 638e 423e 8609 713d 8f4b 10bd fbe2 47bd
000000b0: 9ff4 86be 2616 3fbc 961f 463d 0aa3 cbbd
000000c0: 2fc6 983d 3dab d63d f0b3 893d 6e77 9e3c
000000d0: f98c 0fbe f8e7 723e 02d1 c43d c376 353d
000000e0: 58e5 6b3d 0a76 20be 3543 bd3d e8e3 463e
000000f0: 84cc bf3d 5c13 d73c 70b3 60be ea9e ad3c
00000100: 6a0b 37be f031 87be 1757 ecbb 0a9b 58bd
00000110: 8304 853d c04a 753e 4fde 253e c4f2 ae3d
00000120: b701 42be 3006 393e 304f a43d d091 e73d
00000130: fae9 bfbc 2073 1ebd 8591 33bd 829c 87b9
00000140: 3b9f b83c c546 2fbd fa05 7bbe d075 1abe
00000150: fda4 5ebe 7f2b e43d ce85 8b3d 7216 803e
00000160: f034 d8bb 1feb 203e 4220 bfbd 1a22 0ebd
00000170: 7639 2a3d 8eb2 1d3d d6b0 0dbe a600 58be
00000180: 443b 71bb 84a1 64be 659d 003e e566 843d
00000190: 322b afbd 23b4 373e ecb0 d0bc d46b 003e
000001a0: c1e1 c4bc f406 b3bd c3b4 84bd ead6 5f3e
000001b0: e3eb 093d 26bd da3d 3062 9c3d 0467 26be
000001c0: 980b 853d 8538 483e 2323 003d c1a6 ee3d
000001d0: b995 bf3d d8a2 473d 39d8 963e 02f5 c7bd
000001e0: 6185 483e 4d11 5c3d 2848 a0bb 055b 3d3e
000001f0: b901 22bd e03f 3d3e c397 b6bd 0bf9 263e
00000200: c7c2 82be e5d1 42be f589 be3d 20b8 d7bd
00000210: 9737 6cbe f3e6 f63d 40b0 5b3e 5230 ca3b
00000220: 19ae 57bd c18a 66bc 614a 28bd 3152 83bd
00000230: cc42 56be b8ca 12be a453 ca3d 9a63 f53b
00000240: 0e35 92bd f42d 2c3b 6d3c 3b3e 116b c6be
00000250: 3101 bd3d cdd5 ac3c 66b6 eb3c 9974 893c
00000260: a29a 873d 9342 05be 99d5 b6bc 9985 31bd
00000270: fcf4 8a3d 9b5a 383d 92cd 00be d0ac e5bd
00000280: fda5 013e bf81 853e b2f6 31be d222 fabd
00000290: 6ca2 4ebe f5c6 373c 5ce5 0cbd d336 023e
000002a0: 6a46 473d 4599 2fbd 3114 0abe 83bd 51be
000002b0: c2b7 86be 365a f4bd dbf9 20bd bcb4 2b3b
000002c0: da0c a7bd c9c3 b4bd aff3 18bc 43d0 d1bd
000002d0: 3530 2abe fab7 69bc ade3 4cbe 6985 be3b
000002e0: 97d1 bcbd d963 633e 32ec 4ebd 62cf f6bd
000002f0: 3f4e 00bd 8ce7 43bd f0bd 903c bcef 88be
00000300: 1a9d 263e e23b f5bd 435b 2f3e c2f7 39be
00000310: 2adc 1dbd a433 33bd 2808 d2bd 07a3 0b3e
00000320: 3994 f43d 8d14 243d 40af dbbd 8c99 edbc
00000330: 874c f33d 6493 e0bd 0544 12be fc35 0ebe
00000340: 35bc 473d 4c2c ca3c 2606 91bd 7fc2 50bd
00000350: 26a8 ce3c a331 66bc 4ace 96bc c643 2a3e
00000360: 6fea 5bbe d25a efbd 3729 0cbe 05f7 30bc
00000370: b444 c3bc 4561 6cbe c162 c7bd ed5c 943e
00000380: f89d 683e fc24 b8bc b562 543d 9c60 febd
00000390: 3f66 393d 3748 25be 2705 71be 2443 26be
000003a0: bbfa 4cbd 8fc0 b63c 9d4d a73c 5714 533d
000003b0: c0d6 813e 1624 613e 0044 29be 388b 15bd
000003c0: 01a2 3e3d 9f39 ec3c ba1d cfbc af2c 3c3c
000003d0: 6fc8 d83c 2e43 b13d 6d5f 7cbc dec7 21be
000003e0: bf3f 313e df74 78be 4a8d 253e 8a52 4ebe
000003f0: 8159 453e 8cda 88be 9b04 a23e 56c0 9d3d
0.048054744 0.01037432 0.14309272 0.18358178 0.062060934 0.1997798 0.17883347 0.12862615
0.11357209 -0.02116808 0.11761271 0.012855376 -0.11053061 -0.046938997 0.09132484 0.14325176
-0.03667194 0.105681926 -0.15406603 -0.05858885 -0.023862818 -0.105070464 0.19115286 -0.18785962
0.21549517 -0.12927018 0.07463566 0.18359804 -0.15284197 0.090505995 0.012910085 0.024562726
0.095631845 -0.1340723 -0.07149101 -0.08031758 0.23510246 -0.14496383 0.16098928 -0.113434665
0.18999629 0.058846973 -0.03522831 -0.04880045 -0.26358506 -0.011662995 0.048369966 -0.099432066
0.074596755 0.1048188 0.067237735 0.019344058 -0.1401862 0.23721302 0.096101776 0.044302713
0.057591766 -0.15670028 0.09241334 0.19422877 0.0936518 0.026254348 -0.2194345 0.02119394
-0.17875448 -0.26405287 -0.0072125304 -0.05288223 0.06495001 0.23954296 0.16198085 0.085423976
-0.18945967 0.18068767 0.08022916 0.113071084 -0.023426998 -0.03868401 -0.04383995 -0.00025865814
0.022536865 -0.0427921 -0.24513999 -0.15084004 -0.21742626 0.11141109 0.068126306 0.25017124
-0.0065981075 0.15714692 -0.093323246 -0.03470049 0.041558705 0.03850036 -0.13836989 -0.21093997
-0.0036809007 -0.22327238 0.12560041 0.06464938 -0.08553161 0.1793981 -0.025474988 0.12541133
-0.02403343 -0.087415606 -0.0647979 0.21859327 0.033672225 0.106806085 0.07635915 -0.16250235
0.06496352 0.1955281 0.03128351 0.116528995 0.09354729 0.048739284 0.2946184 -0.097635284
0.1958213 0.053727437 -0.004891414 0.18491752 -0.039552424 0.18481398 -0.08915665 0.1630594
-0.25539228 -0.19025381 0.09303657 -0.10533166 -0.23068081 0.12055769 0.21453953 0.006170311
-0.052656267 -0.014071167 -0.04108656 -0.06412161 -0.20923918 -0.14335144 0.098792344 0.00748868
-0.07139026 0.0026272507 0.1828477 -0.3875356 0.09228743 0.021098042 0.028773498 0.01677923
0.06621291 -0.13013677 -0.022318648 -0.0433403 0.06785008 0.045008283 -0.12578419 -0.11214602
0.12660976 0.2607555 -0.17379263 -0.12213673 -0.20179147 0.011216869 -0.03439842 0.12716226
0.048651136 -0.04287078 -0.13484265 -0.20482449 -0.2631207 -0.11931269 -0.03930078 0.0026200255
-0.08156748 -0.088264056 -0.009335442 -0.10244801 -0.16619952 -0.014265055 -0.20008726 0.0058142436
-0.092196636 0.22206058 -0.050518222 -0.12051274 -0.03132462 -0.047828242 0.017668694 -0.26745403
0.16270867 -0.11974312 0.17124657 -0.18160918 -0.038540043 -0.04375042 -0.10255462 0.13636409
0.11942334 0.04005866 -0.10726786 -0.02900388 0.11879831 -0.109656125 -0.1428376 -0.13887781
0.048763473 0.024679326 -0.07081251 -0.050966736 0.025226664 -0.01404992 -0.018408913 0.16627416
-0.21476148 -0.116872445 -0.13687597 -0.010801082 -0.023836471 -0.2308398 -0.09735633 0.28977147
0.2271651 -0.022478573 0.051851947 -0.124207705 0.045263525 -0.16140829 -0.23537122 -0.1623655
-0.050043803 0.022308616 0.020422751 0.05153307 0.25359154 0.21986422 -0.16529846 -0.036509722
0.046541218 0.02883607 -0.02528273 0.011485263 0.026462762 0.08655392 -0.015403611 -0.157989
0.17309473 -0.24263333 0.16167179 -0.20148674 0.19272424 -0.26729238 0.3164414 0.07702701

network.0.bias f4 [128]
00000000: f6f1 7835 9b1a 7737 6733 9f37 f613 fd35
00000010: 0031 a8b6 ded2 2c38 e0e5 d2b5 c2b5 43b5
00000020: dddd 0ab7 e3c6 1237 dec2 5db7 e441 a4b3
00000030: 92cb 55b7 a88f fa34 8b3f 5fb9 836a 4837
00000040: 61bc 4839 7966 0db8 3176 d6b5 360c 8837
00000050: 0afb 22b8 bc62 f936 5ca4 cd36 50b9 eb35
00000060: db25 2ab7 03c3 5337 f26c 9736 4650 5eb7
00000070: af3d 8837 10ae 03b5 ac8a d2b6 3f50 c3b8
00000080: aa5a 6c35 be4e 54b7 e748 42b8 c424 90b4
00000090: 69e0 0a38 da98 8fb3 b7b3 6537 4f91 7937
000000a0: b5a2 b1b5 4406 dc35 e7c8 73b6 2471 a3b6
000000b0: 6059 c036 cb3c 0b36 6b5d b4b7 4f59 c735
000000c0: 5e79 c9b7 d6c1 98ba 74e6 03b8 985a 28b8
000000d0: 07da 35b6 a30e 0fb8 fdd3 1337 5c74 d3b7
000000e0: 5bf4 ebb6 d574 2938 b43b 22b8 b31a a5b5
000000f0: 02b7 32b6 5e80 4835 3621 8e37 51b9 0bb6
00000100: b4e4 4db7 6923 bf36 5d43 9135 3e37 8138
00000110: 2496 8b36 d80f a836 d68b 9e37 a9df 7cb8
00000120: 40dd 0d36 e8a2 0638 19fc e635 9fca cab6
00000130: 97de 2fb5 a459 a338 18ff 7438 072b c037
00000140: 02a8 58b5 15dd 4f36 a7a9 3c36 0c77 afb7
00000150: 98ec 8035 f4f9 6037 50c8 1933 036f 7f36
00000160: d641 1a38 04ad 4237 9418 53b7 5ce0 f8b5
00000170: 2c7c fe37 6a83 76b5 f89d c536 f8fe 26b7
00000180: e56a a9b5 3a6d f436 c557 8e37 b63c 12b7
00000190: 9b98 11b7 a354 6737 0f8e efb5 7a9e 8bb7
000001a0: 9b45 6936 02c2 a5b6 90fb bab7 ffa8 08b8
000001b0: 118b bcb7 8c36 f136 67b8 8336 f864 3bb9
000001c0: 6b34 dd36 e8f7 cfb7 4ad5 2637 d1e6 48b8
000001d0: 0de3 1b37 4abe 3f38 103a fab6 03fd 09b9
000001e0: 0080 b635 8aaf 95b6 8059 9fb8 a3e1 05b5
000001f0: a10a b837 d4f0 11b7 8715 0238 50cf eb35
9.27393e-07 1.4728542e-05 1.8978213e-05 1.8855778e-06 -5.0124945e-06 4.120438e-05 -1.5713122e-06 -7.2907653e-07
-8.277098e-06 8.748585e-06 -1.3217998e-05 -7.6488305e-08 -1.2743187e-05 4.6670652e-07 -0.00021290609 1.1945728e-05
0.00019143663 -3.3712455e-05 -1.5978641e-06 1.621815e-05 -3.8857608e-05 7.4322725e-06 6.12861e-06 1.7562797e-06
-1.01416035e-05 1.2621985e-05 4.5128336e-06 -1.3250921e-05 1.6241187e-05 -4.90546e-07 -6.2746312e-06 -9.3132716e-05
8.8048785e-07 -1.2654518e-05 -4.63211e-05 -2.684884e-07 3.3110762e-05 -6.68676e-08 1.3691307e-05 1.4875389e-05
-1.3234882e-06 1.6393101e-06 -3.6326762e-06 -4.87095e-06 5.7324505e-06 2.0748e-06 -2.1501173e-05 1.4852648e-06
-2.4017583e-05 -0.0011654447 -3.144746e-05 -4.0138693e-05 -2.709801e-06 -3.410749e-05 8.81124e-06 -2.5207344e-05
-7.0319925e-06 4.0401548e-05 -3.8679413e-05 -1.2301228e-06 -2.6630591e-06 7.4692605e-07 1.6943184e-05 -2.0820482e-06
-1.2272201e-05 5.696366e-06 1.0822947e-06 6.161489e-05 4.1600015e-06 5.0086346e-06 1.8900184e-05 -6.028978e-05
2.1139422e-06 3.2099808e-05 1.7209705e-06 -6.0436573e-06 -6.551649e-07 7.7891425e-05 5.8411708e-05 2.290822e-05
-8.0710754e-07 3.097409e-06 2.8112934e-06 -2.0917061e-05 9.605601e-07 1.3409637e-05 3.580527e-08 3.8062578e-06
3.6777776e-05 1.1603584e-05 -1.2582303e-05 -1.8542737e-06 3.0336982e-05 -9.1833374e-07 5.8894475e-06 -9.953736e-06
-1.2622592e-06 7.2844823e-06 1.696859e-05 -8.7164135e-06 -8.678205e-06 1.3788379e-05 -1.7848232e-06 -1.6643888e-05
3.4760221e-06 -4.9399687e-06 -2.229007e-05 -3.2582317e-05 -2.2476104e-05 7.18871e-06 3.9255715e-06 -0.00017871324
6.5924155e-06 -2.4791763e-05 9.944031e-06 -4.789868e-05 9.291584e-06 4.571517e-05 -7.45734e-06 -0.00013159592
1.359731e-06 -4.4609815e-06 -7.5983815e-05 -4.9874706e-07 2.1939459e-05 -8.698746e-06 3.1014464e-05 1.75692e-06

network.1.weight f4 [128]
00000000: 72db 3b3f bdce 523f aca0 813f 0054 2c3f
00000010: 335e 393f e9b6 6b3f cf0c 563f de12 3f3f
00000020: 6a43 5f3f 3cab 4f3f a905 743f 8dee 383f
00000030: dc27 653f 991a 463f d522 893f e90c 573f
00000040: c4e7 9b3f 9758 883f 3547 303f fa13 753f
00000050: f5da 953f 25b5 643f 36e9 623f de72 413f
00000060: 969e 583f 3f83 6d3f bb25 443f bdf4 6b3f
00000070: 882c 603f 0b79 323f 3b7d 5c3f 3c9f 9a3f
00000080: 527b 793f a99d 563f 1194 773f bad9 293f
00000090: 5cb9 883f 8d13 313f a54b 693f 3d95 883f
000000a0: 63c6 3f3f ccaf 5a3f 4dbe 593f 95cc 573f
000000b0: 9130 473f 62cb 2a3f 62b1 643f 088b 433f
000000c0: 9a05 853f 8b61 883f fb8f 783f 5df9 8b3f
000000d0: b256 333f a659 4c3f 1c60 413f b552 6e3f
000000e0: a1d3 813f 1874 513f 5b48 703f db72 583f
000000f0: 2942 723f 85c3 4b3f 446e 4f3f 592d 423f
00000100: f215 463f 6015 553f 9d95 213f e523 8d3f
00000110: 20be 813f 6b67 733f 942d 763f d34e 973f
00000120: 4d77 313f acab 9f3f 8da6 413f a593 4a3f
00000130: c0a4 403f fa2b 663f 9599 733f f614 5f3f
00000140: 335f 403f 4848 543f f2c9 5e3f 236b 6d3f
00000150: 739f 363f c634 503f efa8 5c3f 1166 483f
00000160: d941 613f e6ed 763f a5f2 333f 0028 3b3f
00000170: 0ff6 9a3f 6c92 3f3f 5bda 493f add4 833f
00000180: dfbd 383f 539e 463f 8680 733f d69f 6f3f
00000190: f3c3 823f c796 883f 9d6c 503f 45f5 6e3f
000001a0: 4813 6d3f a47a 7d3f 5b2e 803f 94de 943f
000001b0: 1e79 853f 0555 813f 77f5 373f cfba 933f
000001c0: 153c 643f 163a 5e3f 06c7 573f c3a0 953f
000001d0: 3b90 383f 6878 563f 69ce 463f 79e5 443f
000001e0: ae28 4c3f ba16 473f f8aa 3d3f c2ee 3f3f
000001f0: 0a5b 903f 392c 393f 7900 823f 2b79 3e3f
0.7338172 0.8234671 1.0127158 0.67315674 0.7240936 0.92075974 0.83613294 0.74638164
0.8721224 0.8112066 0.95321137 0.72239 0.89513946 0.77384335 1.0713755 0.84004074
1.2180104 1.0652035 0.68858653 0.95733607 1.1707445 0.89338905 0.886371 0.755659
0.8461698 0.9277839 0.7662007 0.92170316 0.8756795 0.69715947 0.86128587 1.2079844
0.97453797 0.8383432 0.96710306 0.6634785 1.0681567 0.6917046 0.9113105 1.0670544
0.7491209 0.85424495 0.85056 0.8429654 0.7780848 0.6671659 0.89333165 0.7638402
1.0392334 1.0654768 0.97094697 1.0935475 0.7005416 0.7982429 0.75537276 0.9309495
1.0142709 0.8181777 0.93860406 0.84550256 0.946322 0.79595214 0.81027627 0.75850445
0.77377236 0.8323574 0.63118917 1.1026579 1.0136147 0.9507968 0.96163297 1.182093
0.69322664 1.2474265 0.7564476 0.7913154 0.7525139 0.8991085 0.9515622 0.8714136
0.7514526 0.8292279 0.87026894 0.927416 0.7133705 0.81330526 0.8619527 0.7828074
0.879911 0.96456754 0.7029212 0.7310791 1.2106341 0.748328 0.7884881 1.0299278
0.7216472 0.77585334 0.95117986 0.93603265 1.0216049 1.0671014 0.8141573 0.93343
0.92607546 0.9901526 1.0014147 1.1630425 1.0427587 1.0104071 0.71858925 1.1541384
0.8915418 0.8680738 0.8428806 1.1689686 0.7209508 0.83777475 0.77658707 0.7691265
0.7974957 0.77769053 0.74089 0.7497369 1.1277783 0.72333103 1.0156394 0.7440364

network.1.bias f4 [128]
00000000: 94f2 9abd 1126 cbbd 3768 8abc 7903 3dbe
00000010: f96c c8bc 0f75 49bd 4510 343d ca82 3fbe
00000020: c6a3 52bd 0bdc 1bbe f71b dc3c eacd 43be
00000030: efb0 21bd 186f 9a3c 54b3 443b 186e 44bd
00000040: 308c f0bd 88b0 56bd 384a c5bd c948 d3bc
00000050: 35e1 11be e1da 313b 9315 c6bd a475 9ebd
00000060: 080c 8a3b 7e73 a53c 21f5 c1bd 5e64 86bd
00000070: 6cf5 c1ba 3ed2 27be 751c 90bd f96e 6a3e
00000080: a392 54be 1d4d 41be 3bd6 223b 493d 0bbe
00000090: 64cd 12be c9f8 90bc 28e0 7ebd 82fe da3d
000000a0: b856 883c ffbc 71bd 9172 5cbd d112 563e
000000b0: 1ce6 4f3b 0d9a 1abe 8ecf 803c 6e8a 793c
000000c0: c89f 413d be07 463e b2d7 1c3d 998f dabd
000000d0: 6cf4 1abe dc3a fabd 864c 0bbe 7bff f5bc
000000e0: 05ea 783e ff35 96bd 9bdc 1ebd e0d7 9fbd
000000f0: ad86 0d3d 4f7b 0a3c 8336 73bd 39d8 2bbe
00000100: 4651 07be 8217 1bbe fce5 3abe b7aa a0bc
00000110: 87f6 39bc 5596 09bd 8e91 41bd ddd7 373a
00000120: b6f6 56be 9e49 31bd 11a7 cb3b 572e 0cbd
00000130: 957e 32be 6caf 8abd 3aae 52bd 0877 39bd
00000140: 331c e63b 5428 9ebd ff77 eebd 008e e336
00000150: 16cb 00be b3f8 afbd 5d10 07be 495b 30be
00000160: 7927 2bbe f9c8 873d 6776 2fbe 9077 15be
00000170: ae41 113e 5742 f33d dd96 b5bd e912 e4bd
00000180: 1a80 07be f8d6 acbd e944 8bbd c377 b7bd
00000190: 1a1e 193c 1ae5 26be 7f5e 0abd d8db d7bc
000001a0: f356 98bc ab5d 253c 7bd7 153c 04f0 233d
000001b0: 2ebc 9bbc 82ca 82bd 3923 5fbe 960d 47be
000001c0: e2e1 c6bd 61c1 01be 379e 52bd a7f5 d9bd
000001d0: bb80 57be 32e3 8fbc e494 44be 97e9 babd
000001e0: 5f1b d1bd c04f 22bd df96 35be 1f6a f8bc
000001f0: fbc2 46bd e4e6 c63d 7a40 5bbd 4489 1bbd
-0.07565799 -0.0991937 -0.016895397 -0.18458356 -0.024466025 -0.0491839 0.04396083 -0.18702236
-0.051425718 -0.15220658 0.026868803 -0.19121519 -0.039475378 0.018851802 0.0030014114 -0.047956556
-0.11745489 -0.052414447 -0.09633297 -0.025791543 -0.14246066 0.0027138519 -0.09672084 -0.07737282
0.00421286 0.020196673 -0.09470583 -0.06562112 -0.0014797873 -0.16388795 -0.07036678 0.22893895
-0.20759062 -0.18877073 0.002484693 -0.13597597 -0.14336163 -0.017696755 -0.06222549 0.10693075
0.016642913 -0.05901813 -0.053820197 0.20905615 0.003172285 -0.15097828 0.01572397 0.015230758
0.04727152 0.19338891 0.03829164 -0.1067192 -0.15132302 -0.12218258 -0.1360341 -0.03002905
0.24308021 -0.07334518 -0.038784605 -0.07804847 0.034552265 0.008452251 -0.05937816 -0.16781701
-0.13214597 -0.15145686 -0.18251795 -0.019612653 -0.011350281 -0.033590633 -0.047257952 0.0007013062
-0.2099255 -0.043283097 0.006214984 -0.03422388 -0.174311 -0.0677174 -0.051435687 -0.045279533
0.0070224046 -0.07722536 -0.11643981 6.781658e-06 -0.12577471 -0.085923575 -0.13189836 -0.17222323
-0.16714276 0.06630129 -0.1713501 -0.1459639 0.14185211 0.11877888 -0.088666655 -0.11136419
-0.1323246 -0.084394395 -0.06800253 -0.089583896 0.009345556 -0.16298333 -0.033781525 -0.026349947
-0.018596148 0.010093133 0.009145613 0.04002382 -0.01901063 -0.063862815 -0.2179078 -0.19438776
-0.097110525 -0.12671424 -0.051420417 -0.106425576 -0.210452 -0.01756439 -0.19197422 -0.09126585
-0.10210299 -0.039626837 -0.17733334 -0.03032404 -0.04852579 0.09712008 -0.053528287 -0.037972704

network.1.running_mean f4 [128]
00000000: 5ecf d13b 9692 ea3a a059 743a 7abb 823b
00000010: 4acb 613c 5931 273c ef3b bbbb a09a 31bc
00000020: 327c c33c d66e 4b3c eaca 633c 6c96 1ebc
00000030: 984b 2cba a497 d8bb d09d 843b f4d4 05ba
00000040: 228b a83b 240e 6ebb ac71 23bc 5f91 073c
00000050: 4bce 0d3c f439 bc3b b69e 7a3c 28a4 6abb
00000060: f3a8 083c be54 603c 9224 e23c 8ad2 f2bb
00000070: 7eca 0f3c 085d d3ba c7a0 223b 44fd 4ebc
00000080: b859 eaba 5a3a 393b f83d 1f3a 3d5d 1a3c
00000090: 2aeb c43b ee41 d63c 6543 513c a7c4 c6ba
000000a0: cee1 05bc be7c 8f3b acce c5ba a04c c7ba
000000b0: bac4 233c 98ec bf3c 6cd7 013c bcac 383b
000000c0: 7258 8bbb ae6e 8dba 6f01 523c 1c71 e9bb
000000d0: 8a19 033c 94b2 38bc d923 de3b 21e0 a0bc
000000e0: 2166 85bc c4ec 903c 1fc4 eb3b 62ba 10bc
000000f0: e8ec 55bb b01a 31bb 7be6 6d3c 1986 673c
00000100: 5f78 533c 7735 b03c 8d3b 863c aad1 be3c
00000110: 84c2 673a c46a c03a 4a97 3b3c 8e8a 9b3c
00000120: 80bf 113a 2670 0e3b e830 72bb b29e 103c
00000130: 3f5a 233c 8fa9 2c3c a684 b7bb 2735 ae3b
00000140: 8589 853c 0497 b73c 2037 9e3c 7459 4b3a
00000150: 31a8 58bc 7ec0 ae3b 8ceb aa3c f173 71bb
00000160: eaaf 19ba bf9a 8fbb f65e bbbb 72e0 6c3c
00000170: 3af8 623c b744 5fbc 2845 22bc 5ce5 863c
00000180: 9b06 09bc 4c12 f63a a2b0 4e3c 06af cc3a
00000190: a7a6 f93b 6431 2b3c 3179 bcbb 2c67 66ba
000001a0: 3889 0c3a b0da 3a3c e1d0 8ebc 92fb 143c
000001b0: da4f 2fbc ff63 d2bb 881a 7d3c c8ba c23b
000001c0: 616a e2bc 432a 8a3c 769f 153b 9851 4f3c
000001d0: b96e 1abc d93b e83b 9a61 4bbc 18b9 f03b
000001e0: 1a96 3e3c c0db 473b 22dc e33b 77fa b83c
000001f0: 7027 083c b0da 3b3b 00e8 d737 6b0f 873c
0.006402894 0.0017896469 0.00093212165 0.003989634 0.013781378 0.0102046365 -0.0057139318 -0.010840088
0.023862932 0.012416562 0.013903359 -0.009679418 -0.00065725436 -0.006609874 0.004047133 -0.000510528
0.005143539 -0.0036324346 -0.009975832 0.008274405 0.008655141 0.0057442132 0.015296629 -0.003580341
0.008341062 0.013692079 0.027605329 -0.007410352 0.008776305 -0.0016125748 0.002481507 -0.012633625
-0.0017879521 0.002826354 0.0006074603 0.009421644 0.006009479 0.026154485 0.012772416 -0.0015164808
-0.008171512 0.004378884 -0.00150915 -0.0015205331 0.009995634 0.023428246 0.007924896 0.002817913
-0.004252487 -0.0010790431 0.012817725 -0.0071240794 0.008001694 -0.011273045 0.0067791757 -0.019638123
-0.01628405 0.017691024 0.0071950103 -0.0088335 -0.0032642428 -0.0027023964 0.014520283 0.0141310925
0.012907117 0.021509869 0.016385818 0.023293335 0.0008840936 0.0014680256 0.011449644 0.018986966
0.0005559847 0.0021734326 -0.003695542 0.008826898 0.009970247 0.010538473 -0.0056005297 0.005316395
0.016300926 0.022410877 0.019313395 0.0007757165 -0.013223694 0.0053330055 0.02086427 -0.0036842788
-0.00058627 -0.004382461 -0.0057181073 0.014457809 0.013853127 -0.013627223 -0.009904183 0.016466789
-0.008363391 0.0018773763 0.012615355 0.0015616126 0.0076187435 0.010448787 -0.005751752 -0.00087891775
0.00053610234 0.011404678 -0.017433586 0.009093182 -0.01070019 -0.006420612 0.01544822 0.005942676
-0.027638616 0.016865855 0.0022830642 0.012653731 -0.009425812 0.0070872125 -0.012413407 0.0073462836
0.011632467 0.0030495971 0.006953732 0.022580368 0.008310184 0.0028664283 2.573803e-05 0.016486844

network.1.running_var f4 [128]
00000000: af29 dc3e feff 9a3c e280 013c 4156 423e
00000010: d616 d33d 42de 1e3c 1b81 da3c 66cf b33e
00000020: 1c8c 8c3d edf3 8a3d 74a9 2c3d a146 473f
00000030: 7225 323d e8c7 2c3d a702 3d3c 1196 053d
00000040: 6af0 893b c422 163d ec95 c63e ffdb 1f3c
00000050: b795 303c a736 913c 3a83 be3d b1da c13e
00000060: 6cd1 ee3c 57d3 fe3c 7166 9c3d a3c4 e63c
00000070: 143e b03c ceb5 523d 2950 093d a962 cb3c
00000080: 1da6 703c 7ee4 433d bce9 da3c c859 a83e
00000090: 7aa9 cd3c 7abe 583e 9a1f 3c3d 1462 073c
000000a0: 8e70 863e 3675 dd3d b4c7 5c3d 8656 9f3c
000000b0: af28 3b3d 963f d93d 73af f53c dbb1 213d
000000c0: b2b0 bd3c 6d9d 163b 99d1 433d c95f 8a3c
000000d0: 5220 bf3d 2e4c de3c 013c d33c aa97 003e
000000e0: b6e5 263d 1034 743d 33cb 863d 0ee1 0c3d
000000f0: 68c5 c43c 4d51 923e 36a0 4a3d c0c7 9f3d
00000100: 5556 973d ecd3 e83d 0a71 af3e df25 563d
00000110: 7800 f53b bc74 1c3d 420a 1b3d d76a 813d
00000120: 8c02 6e3e 8383 533b 98be a23e a210 1a3d
00000130: 6372 bc3d 5832 703c fd54 0e3c b9f7 163d
00000140: 7ec2 943f ab55 cf3d 9f59 db3d 8e8a b93c
00000150: a210 f03d 8912 af3d b921 2c3e 3398 fa3c
00000160: fca0 e03c 0543 4a3c 6559 083d 1ae2 a93d
00000170: 8331 713c baac 893e d2bd 473d cd39 cb3c
00000180: 8210 213d 722c 993d 67b7 713c 9404 6e3c
00000190: 6e67 833c 39f9 773c 8af0 d83c c4dc 8b3c
000001a0: e045 f63c 6247 a93c 1fed 453d 5c57 d93c
000001b0: 2826 9d3c bdfb 323c bc3d ab3d 0083 933b
000001c0: ca3b ff3d 3281 5e3d 7502 4c3d d5a7 e73c
000001d0: 26aa ae3c 5749 2c3d 0ddf c03c 202e 8d3d
000001e0: 0c42 ac3d fd06 043e e14b e43d 1cda 9d3f
000001f0: 6942 623c 60b6 903d c949 e03c b232 ce3e
0.43000552 0.018920895 0.007904263 0.18978216 0.1030709 0.009696545 0.02667289 0.3511917
0.06862661 0.067848064 0.04215379 0.77842146 0.043492742 0.042182833 0.011536277 0.032613818
0.004209568 0.03665425 0.38786256 0.009757041 0.010777882 0.017726256 0.09302373 0.3786216
0.029152595 0.031106634 0.07636727 0.028169936 0.021513976 0.051442914 0.033523712 0.024827318
0.014688042 0.04782533 0.026722781 0.32880998 0.025105227 0.21166411 0.045928575 0.00826313
0.26257747 0.10813372 0.05390139 0.019450437 0.045693096 0.10607831 0.029990887 0.039476257
0.023155544 0.0022982017 0.04780731 0.016891377 0.093323365 0.027135935 0.025785448 0.12557855
0.040746413 0.059619963 0.06581726 0.034394316 0.024019912 0.28577653 0.049469195 0.07801771
0.073895134 0.11368546 0.3426593 0.05228221 0.0074768625 0.038197264 0.03785158 0.06319206
0.23243159 0.0032274432 0.31786036 0.03761352 0.09201505 0.01466044 0.008687255 0.03685734
1.1621854 0.10123762 0.10710453 0.022649076 0.117219225 0.08548457 0.16809739 0.030590152
0.027420513 0.01234508 0.03328838 0.082950786 0.014721277 0.26889592 0.04876501 0.024807835
0.039322384 0.074791804 0.014753199 0.014527459 0.01604053 0.015135103 0.026481885 0.017073043
0.030062616 0.02066392 0.04832184 0.026530914 0.019183233 0.010924277 0.08361384 0.0045017004
0.12462576 0.05432243 0.04980703 0.02827827 0.021321367 0.04206213 0.023543859 0.06893563
0.08411035 0.12893291 0.11147285 1.2332187 0.013809779 0.07066035 0.027378934 0.40273052

network.4.weight f4 [64, 128]
00000000: d8ed 9f3d b359 c13d 60b1 573d ef1a 0ebd
00000010: 1ee6 4dbd 95c5 92bd 9d43 a7bd d98b fabc
00000020: c677 8fbd fc3b 7b3d 6c37 efbb e45a ab3d
00000030: 1ca1 6c3d e736 0c3d 4275 f2bc fef2 3e3d
00000040: d37b 84bd 10c5 583d f89c 09bd 5eac 93bc
00000050: 8aa3 37bd 37af 4fbd 009e 5b3d cb52 99bc
00000060: 2aac 7d3c f0d3 f63d ba99 cbbd fdba febb
00000070: 105b 8e3b 047a 763b e10a c23d ffef a73e
00000080: 6783 5fbc 8c3b 82bd de54 73bc d7a3 123a
00000090: 76b6 3cbb e960 94bc 4106 febb eba7 a3bd
000000a0: cd93 8f3d 312b 473c cd0d 94bd 68eb cc3c
000000b0: 84cb 7d3d 584a 22bd ad24 193d 51c8 8a3c
000000c0: 157d 98bd b4cb 06bd 0d9b 4dbc ade3 843d
000000d0: 29b5 5bbb b49d e9bc 7b57 4a3c 13e9 1abd
000000e0: b5ec 553d d38d 863d 68da 7f3c 210d 933b
000000f0: ddbf 1bbe 5d30 64bb be86 c33d 8190 c33d
00000100: 87f2 3d3c d255 833d 02f7 47bc 1284 21be
00000110: cf6b 8abd f6fb 02bc 494c a03d 2c0a 98be
00000120: d085 fd3c 4ad5 d2bc 4552 7abc 3ce5 873b
00000130: 4ed5 6bbd 54f8 963d ae20 f63d 0494 983d
00000140: a03f 09bd e702 013e e0bd f2ba e46c 88bd
00000150: c400 123d 4e4f 0cbc 850f 103d 50a7 253c
00000160: 066b 43bc 3946 1f3e 4548 7cbc f334 8b3d
00000170: 0d06 81be 2fc7 433d 5b14 26bd 06e1 42bd
00000180: b337 0d3d be4a ae3c 694d 40bc 9252 43bc
00000190: b27f 1d3d 1d01 17bd ed25 053d 0dd8 8c3d
000001a0: 1c3c bebd 18a5 6dbc 0b03 8abb f5c7 f1bd
000001b0: 8b76 ac3d 6adf 863d 22ef fd3a 7d68 22be
000001c0: 3284 41bd 5389 cdbd 4664 04bd 08ab 84bc
000001d0: eaf6 543d 5527 b63c af6d b4bc 5616 e53d
000001e0: 7f1a 223c db7d 663d e397 4a3d bea6 443c
000001f0: 81c4 d7bd 6a99 6e3d 4f53 8c3d d8a6 603d
00000200: 8b4d fb3c ca70 03be 772c f83c 5280 5e3c
00000210: f11a b43d b62d d6bc 4f8d a63d febf 7e3d
00000220: da90 59bd 1762 723d 2e96 dbbd c170 183d
00000230: 26aa 203e 7545 7c3d 9914 bd3c df11 483a
00000240: e51a d83b b16f 113e c0f3 1e3e 1255 b73c
00000250: a310 513d 7249 f03b f790 8f3d d0b0 7f3d
00000260: 72ff 793d 5642 973d 1a10 96bc 164d 3fbd
00000270: 26ae a43d b653 b0bc c1fa 823d b1bf 983d
00000280: 8d1f d33c 04c5 35bd db7d ccbc 9834 333d
00000290: 5bdd c63c 6be0 5e3c d433 78bc b62c f23d
000002a0: 3c83 17bc 6035 6f3d 66e1 04bd 5d5d e63c
000002b0: 8dc6 12bd 70e4 8f3c a8e1 61bd 31ef 85bd
000002c0: 8f5c 353e c6cc 75bd 8a68 f3bc 1a38 5c3e
000002d0: a3f3 803c 590c 633d fc03 c03d 5c8a 803c
000002e0: de65 033e 5a80 86bc 8595 393e af5f 743d
000002f0: 4251 ee3d 4cbb b0bb 9e8b be3c 3f24 2bbb
00000300: eefa 3dbc 2a01 8dbd d9a1 903d d830 91bc
00000310: 2888 8e39 235a 53bc 8833 dbbd e611 573e
00000320: c556 a2bd 1d6c 393e a18e 3dbd 03bb 54bd
00000330: 41bd f9bd 1b2b 05bc c1ff 413d a262 403d
00000340: 5d8b 20bd 995b f23c 4deb 22bd f31d 88bc
00000350: 4b74 a33d c0bb 323b 79d2 10be a1a0 f33c
00000360: 3ad2 773d e4df 02bd 1f7a a43d 4d62 9f3d
00000370: 6336 d43d 047a c5bd 3ced c43d d95b 1a3d
00000380: ec3e 13bd c179 b5bd 1b88 763d 0265 883d
00000390: c074 8e3b 9db0 3b3b b646 ec3d 8ec5 8c3d
000003a0: 597d 2c3e 1655 893c 60ad ba3d a6ae c93d
000003b0: 28b7 293e 5887 11bd 4c5d 473c 37fe e7bd
000003c0: 81e9 2c3e 1af2 71bd 4248 5a3d bba5 37bc
000003d0: 8eaf 223d f3be 0abc e72a 393d e443 013e
000003e0: 4fed 333d 9ffd 403d 9011 d03d 8bb9 43bd
000003f0: 3b11 043d 9298 cdbb f267 b93c 14dd 263d
0.07809037 0.09440937 0.052659392 -0.034693655 -0.050268285 -0.07166592 -0.08167193 -0.030584263
-0.07005267 0.061336502 -0.007300308 0.083669454 0.057770833 0.034232046 -0.029596929 0.046618454
-0.0646893 0.05292231 -0.033596963 -0.018026527 -0.044833697 -0.050704207 0.053617477 -0.018716237
0.015482942 0.120521426 -0.099414304 -0.0077737556 0.0043443516 0.0037609348 0.09474731 0.3280029
-0.013642169 -0.06359014 -0.014851777 0.0005593872 -0.0028795279 -0.018112617 -0.0077522104 -0.07991012
0.07010613 0.012156294 -0.07229195 0.025014594 0.061961666 -0.03962168 0.037388492 0.016941221
-0.074457325 -0.03290911 -0.012549174 0.06488738 -0.0033524728 -0.028517582 0.0123499585 -0.037819933
0.052227695 0.065700196 0.015616037 0.004487649 -0.15209909 -0.0034818866 0.095471844 0.09549046
0.011593468 0.06412853 -0.012204887 -0.15773037 -0.06758844 -0.0079946425 0.0782705 -0.2969526
0.030947596 -0.02573647 -0.015278404 0.0041472 -0.05757647 0.073715836 0.12017952 0.07450107
-0.033507943 0.12598763 -0.0018519722 -0.06661394 0.03564526 -0.00856383 0.03517105 0.010110691
-0.011927372 0.15554132 -0.01539809 0.06797209 -0.2519993 0.04779738 -0.040546756 -0.04757788
0.034476947 0.021275874 -0.011737206 -0.011921542 0.038451858 -0.036866296 0.032506872 0.06877146
-0.09288809 -0.014504693 -0.0042117885 -0.11805717 0.08421048 0.065855816 0.0019373635 -0.15860172
-0.047245212 -0.10035958 -0.03232219 -0.016194835 0.051993288 0.022235552 -0.022024957 0.11185901
0.0098940125 0.05627237 0.049461257 0.012002645 -0.10535527 0.058251776 0.06851827 0.054846615
0.030676624 -0.12835994 0.03029464 0.013580399 0.08794201 -0.026144844 0.08132421 0.062194817
-0.053116657 0.059175577 -0.10722004 0.037216906 0.15689906 0.061589677 0.02308111 0.00076320575
0.006595003 0.14202763 0.15522671 0.022379432 0.051041257 0.007332974 0.07010072 0.06242448
0.061034627 0.073856995 -0.018318225 -0.046704374 0.08041029 -0.021524291 0.06395484 0.07458437
0.02577188 -0.044377342 -0.024962356 0.04375133 0.024275472 0.01360331 -0.015149076 0.11824934
-0.009247597 0.05840051 -0.03244152 0.028120691 -0.035833884 0.017564982 -0.055146843 -0.06539763
0.1771109 -0.06000974 -0.029712934 0.21505776 0.015741175 0.055431698 0.0937576 0.015690975
0.12831828 -0.016418625 0.18123443 0.059661563 0.116365924 -0.0053934213 0.023259934 -0.0026114134
-0.011595471 -0.06884988 0.0706212 -0.017723486 0.00027185795 -0.012899908 -0.10703188 0.21002921
-0.07926706 0.18107648 -0.0462786 -0.05193616 -0.121943004 -0.008127953 0.047363047 0.046969064
-0.039195407 0.029584693 -0.03977518 -0.016615843 0.079811655 0.0027272552 -0.14142789 0.02973968
0.060503222 -0.0319518 0.08031105 0.07782421 0.10361936 -0.09642413 0.09615561 0.03768525
-0.03594868 -0.08861113 0.060188394 0.06659891 0.004347414 0.0028639205 0.115369245 0.06873618
0.16844691 0.016764205 0.091151 0.09847765 0.16573775 -0.035529464 0.01216824 -0.113277845
0.1688595 -0.059068777 0.053291567 -0.011208947 0.039718203 -0.008468377 0.04520693 0.12623554
0.043927487 0.047116872 0.101596 -0.04778437 0.032242995 -0.0062742913 0.022632573 0.04073818

network.4.bias f4 [64]
00000000: 9243 8c36 65ea 1d36 22c3 43b7 1aa1 4836
00000010: 470f ceb7 19fc 3e37 6ecc d337 a816 0db6
00000020: 4b1c 20b7 a369 3f37 272e d6b5 e34d 97b6
00000030: cc55 02b7 f1db b0b7 5455 19b7 9725 74b6
00000040: 1e5c 1cb7 c00f f736 5bf2 90b6 744a 60b6
00000050: 42a2 f437 0852 9c36 c688 a8b5 7365 8536
00000060: 4bd6 7337 a76b 0237 e191 0a37 d0b0 df37
00000070: fc5d 1837 630c cfb3 e8bb d5b6 2c8b a4b6
00000080: 204b 9f37 9e24 43b8 f07d acb3 6570 a1b6
00000090: aa87 5437 3e87 ceb6 e8cf b5b6 fb32 5cb7
000000a0: 0010 7634 d024 a3b5 05d4 6cb7 e20a 17b5
000000b0: 340c 9336 3de0 b1b6 2ceb 1eb6 20e1 a436
000000c0: db88 34b7 e58a 4b36 75ce 5eb5 22fc 0936
000000d0: d832 8635 f4eb bcb5 4d0e 44b7 468a 87b7
000000e0: fb85 86b4 d832 1db6 1f77 5d36 4316 d1b5
000000f0: cc63 5c37 bc47 6fb6 aacf a536 d7d5 4736
4.1801914e-06 2.3531259e-06 -1.1668339e-05 2.9896096e-06 -2.4564228e-05 1.1383579e-05 2.5248355e-05 -2.1023825e-06
-9.543331e-06 1.1409083e-05 -1.5957675e-06 -4.509218e-06 -7.76858e-06 -2.1083253e-05 -9.139378e-06 -3.6380713e-06
-9.319772e-06 7.363007e-06 -4.3197483e-06 -3.3421938e-06 2.9162624e-05 4.658712e-06 -1.2556782e-06 3.975519e-06
1.4533823e-05 7.773669e-06 8.259406e-06 2.6666006e-05 9.081788e-06 -9.641442e-08 -6.36977e-06 -4.9037826e-06
1.898926e-05 -4.6525725e-05 -8.032282e-08 -4.8112583e-06 1.2667771e-05 -6.1550227e-06 -5.418424e-06 -1.3124892e-05
2.2916356e-07 -1.215516e-06 -1.4116061e-05 -5.626772e-07 4.382362e-06 -5.301116e-06 -2.3680723e-06 4.913789e-06
-1.07607e-05 3.0330204e-06 -8.300188e-07 2.0561351e-06 9.998575e-07 -1.4075763e-06 -1.168584e-05 -1.6157643e-05
-2.505693e-07 -2.3424418e-06 3.3000904e-06 -1.5578192e-06 1.3136258e-05 -3.565553e-06 4.9415585e-06 2.9777782e-06

network.5.weight f4 [64]
00000000: 2580 783f e6bd 703f fd97 6d3f 35b9 553f
00000010: bff9 6f3f 39ce 3e3f 574f 713f 747e 593f
00000020: bde1 813f 2534 6c3f d529 613f 69e7 683f
00000030: 4309 7f3f 2d40 673f 81ae 6f3f 3dee 723f
00000040: a82d 7c3f 8f17 8f3f 769a 733f ffa1 883f
00000050: a37d 853f 86b7 6e3f 2bc3 3e3f b708 813f
00000060: b368 5a3f bd82 713f 8a77 733f 24d1 493f
00000070: 8fd8 6a3f 10b9 4a3f 10b5 4d3f 2241 763f
00000080: 84c2 733f 4f1b 823f 8f23 503f 859b 7c3f
00000090: b712 7c3f 8325 843f 0293 823f 976d 643f
000000a0: d4ae 513f 9b5d 8f3f 332f 5b3f 74d8 453f
000000b0: 1219 5e3f 4414 5b3f c62c 6f3f 7a6b 6e3f
000000c0: c4ce 673f 8adc 703f 47b4 593f 5de4 713f
000000d0: 48ff 643f 3d15 5c3f 1c8f 533f ac9c 8e3f
000000e0: 5edf 663f cc51 7f3f a35a 5c3f da15 6c3f
000000f0: 31a9 733f acb4 733f 4439 853f 9887 4f3f
0.97070533 0.9403976 0.9281004 0.8348573 0.9374046 0.7453342 0.9426169 0.8495858
1.0147015 0.92267066 0.87954456 0.90978104 0.9962351 0.903323 0.93625647 0.9489477
0.98507166 1.1179065 0.95157564 1.0674437 1.0428966 0.93248785 0.7451655 1.0080785
0.8531601 0.94340116 0.9510428 0.7883475 0.9173669 0.7918863 0.80354404 0.96193135
0.9521868 1.0164584 0.8130426 0.98674804 0.98466057 1.0323948 1.0201113 0.8922972
0.8190739 1.1200441 0.85618895 0.77283406 0.86757004 0.855778 0.93427694 0.93132746
0.90549874 0.94086516 0.85040706 0.9448908 0.8945203 0.8596991 0.8264024 1.1141562
0.9018458 0.9973419 0.860758 0.9222084 0.9518004 0.9519756 1.0408101 0.81066275

network.5.bias f4 [64]
00000000: b115 ddbc ae8c 2abe 216f e2bc 60ca 62be
00000010: 62da 8dbc 8ecd 0abe ff51 37be aae6 8ebd
00000020: 88a0 28bc 475d 0bbe 42c5 ebbd 1015 0cbe
00000030: 766a 08be 6970 483d 120e 043c 7ff9 32bc
00000040: 70f0 293d 2e2c 09be 8489 463d fe75 0d3d
00000050: d928 4ebd e0dc e8bd fb78 c2bd 2609 843d
00000060: 8596 293d 453d cebb cf0e 3ebe e58e f2bd
00000070: 0a30 bbbc 9822 02be aeb4 45bc 30cb 9fbd
00000080: f979 80bd 6afe 03bc 073f f5bd 8325 b2bd
00000090: 18a9 0bbe c76b 493d a3a9 343d fc8a b33b
000000a0: 6eb2 a0bd a421 5cbd 14ec 33be dc4f 49be
000000b0: adf5 f7bd 9815 b0bd e282 efbd 308e 02be
000000c0: 82df faba aeec 2fbd 7db8 1ebc 7ae2 f1bd
000000d0: 92ef 2a3d d3bf 9bbe 4017 aabd 6e11 15bc
000000e0: 1035 03be 99a1 e2bd 2449 e8bd 1afd 67be
000000f0: 0ef7 a7bd 8a4b debc 4521 5ebd 8ab8 c1bc
-0.026987882 -0.16655228 -0.027640881 -0.22147512 -0.017316047 -0.13554975 -0.17902373 -0.069775894
-0.01029218 -0.13609801 -0.11512233 -0.1367991 -0.13321862 0.048935328 0.008059995 -0.010923742
0.041489065 -0.1339576 0.04847099 0.034536354 -0.050331924 -0.113702536 -0.094957314 0.064470574
0.041403312 -0.006293925 -0.18560337 -0.11843661 -0.022850055 -0.12708509 -0.012067003 -0.07802427
-0.062732644 -0.0080562625 -0.11974912 -0.08698561 -0.13638723 0.04917505 0.04410709 0.0054792147
-0.07846533 -0.05374302 -0.17570525 -0.1965937 -0.12107406 -0.08597869 -0.11694886 -0.12749553
-0.0019140097 -0.042950325 -0.00968754 -0.11810775 0.04173238 -0.30419788 -0.08305216 -0.009098394
-0.1281321 -0.110659786 -0.113420755 -0.22655144 -0.08201419 -0.02713563 -0.054230947 -0.023647565

network.5.running_mean f4 [64]
00000000: 027e 933b a211 903f 7401 29bf 2fec 69bf
00000010: 5d3f 97bf 508b a6be de84 d83e c6d9 103f
00000020: e59e b0bd b3d9 4d3d 2b09 c13e 4a30 593e
00000030: 9a0c a43e 1fde c83d a62a 88bf 8f91 123f
00000040: 1851 d93b 086a 77bf 1c61 89bf 6519 60bf
00000050: 05a9 48bf c882 edbe f2a3 cbbd 09a8 98bd
00000060: ded1 e43e f89c c7bd 7ebc b3be 2ac8 f3bd
00000070: eaf3 6bbf 8909 a93e 1b82 e23e 434d 7abf
00000080: fbe3 5f3f b27a 03bf cb28 31bf 5f2e 83bf
00000090: ab6c 34be 5f17 98bf 7958 85bf 6408 a2bf
000000a0: 92ea a0be 3f71 27bf fb55 d0be fda1 1c3f
000000b0: c102 67bf 2530 3f3f 99d4 f93e e715 383f
000000c0: 9838 9abf 15d3 aebf 361b 2b3f ff60 aabf
000000d0: b084 833e ea01 7bbc f7a6 f7be 3731 83bf
000000e0: e79d 393e 6cf8 c0be 5544 0b3f 2e6d cb3d
000000f0: 5e83 433d d685 943e 8851 1cbf a71b 493f
0.0045011053 1.1255381 -0.6601784 -0.9137601 -1.1816212 -0.32528162 0.4228887 0.56582296
-0.08624057 0.050256442 0.37702307 0.21209827 0.32040864 0.09807991 -1.0638015 0.57253355
0.0066319816 -0.96646166 -1.073276 -0.8753875 -0.78382903 -0.4638884 -0.099433795 -0.07453925
0.44691366 -0.09746736 -0.35104746 -0.11903413 -0.9216906 0.33015087 0.44239888 -0.9777414
0.87457246 -0.51359093 -0.6920287 -1.0248526 -0.17619579 -1.1882132 -1.0417625 -1.2658811
-0.31428963 -0.65407175 -0.40690598 0.61184675 -0.9023858 0.7468284 0.48795012 0.7190842
-1.2048521 -1.3658167 0.66838396 -1.3310851 0.2568717 -0.015320281 -0.48369572 -1.0249394
0.18126641 -0.3768953 0.5440114 0.09932934 0.047732703 0.2900836 -0.61061907 0.7855782

network.5.running_var f4 [64]
00000000: 4acc 9b3f 3038 493f 8082 033f f739 813f
00000010: d0fe 7a3f b2cf 8d3e 62d7 193f 46b0 183f
00000020: d4e9 733f 1840 263f 500f eb3e 8e2f 423f
00000030: f0f7 3c3f 0f4e c93e abe7 153f 95a8 2f3f
00000040: 3483 253f 2654 db3f 3b6c 273f c4b3 7b3f
00000050: 801e cb3f 5354 dd3e f88d f13e 0c15 ce3f
00000060: c202 e63e 1bf8 2b3f 37b1 283f b754 283e
00000070: 4b3f 623f c03c 463f c7e6 103f 3774 863f
00000080: 5633 243f 41d5 ac3f 3cb2 303f 7001 893f
00000090: a063 5a3f 0ad4 9b3f 31b0 ba3f 1084 1f3f
000000a0: 831b 593f a2a8 a13f 66ab 003f ce8a ec3e
000000b0: 07a8 5d3f 484f f73e 0aba 303f 843d 163f
000000c0: 58a7 213f 2e1d 2b3f 9e3d 573f d8dc 263f
000000d0: 90eb 3c3f 92e2 8e3f 1072 023f 6bf0 a53f
000000e0: 0409 0b3f 747d 623f cf43 5a3f b0cd ab3e
000000f0: e76e 353f 0998 cd3f e95d 8d3f 95ff 3e3f
1.2171719 0.7860136 0.51371 1.0095814 0.98045063 0.2769752 0.60094273 0.5964397
0.9527867 0.6494155 0.4591012 0.7585381 0.7381582 0.39317366 0.5855662 0.6861661
0.64653325 1.7135055 0.6539952 0.98321176 1.5868683 0.43228397 0.47178626 1.6100173
0.4492398 0.67175454 0.6589541 0.16438566 0.8837783 0.7743645 0.5660214 1.0504216
0.6414083 1.350258 0.69021964 1.0703564 0.85308266 1.2174084 1.4585019 0.62310886
0.84807605 1.2629588 0.50261533 0.4619965 0.86584514 0.48302674 0.69033873 0.58687615
0.6314597 0.668414 0.84078395 0.6518073 0.7379694 1.1162894 0.50955296 1.2963995
0.5431063 0.88472676 0.8525972 0.33555365 0.7087235 1.6062022 1.1044284 0.7460874

network.8.weight f4 [32, 64]
00000000: e99e e43b a0a2 ed3d 5be6 72bc db4b 0ebc
00000010: c00f 1f3e 0e9d 0e3d e099 9abb 385a fbbd
00000020: 52d1 29bd 6fe6 02be 68c9 3c3e 907f 9b3d
00000030: ba92 0b3e 0358 123e 4ffd 933c 8acc 1cbd
00000040: 3989 74bd 984b 6abd 35c6 f53c 4b76 96bd
00000050: e836 93bb 55c3 febd 7e1d be3d b6af e63d
00000060: 0232 7f3d b7f5 b0bd 23ab df3d 9d78 183d
00000070: e654 0b3d 5c0a 543d 67c6 ebbb 6a58 41bd
00000080: 187b 2f3e f8c3 4bbe bb78 ad3c 1c7e 093e
00000090: 9726 5b3b 5e45 48bd cd44 20bd 9600 72bd
000000a0: 31de b6bc bf77 623d a82d b4bd 94e8 443d
000000b0: 1203 56bd 141a 883c 91dc 523e e692 143e
000000c0: 672a 083e 46f5 d3bd b819 b83c 8c63 9dbd
000000d0: 0c19 98bd 18ff 383b 0e84 893c 08a9 df3c
000000e0: 6946 923c 96c4 653e 70af a8bd bac1 a03d
000000f0: 3f94 18bd 35be a83b 4a29 d5bd b1d7 8c3d
00000100: c6dc 9a3d cd6e 04be 745e 1cbd 7c81 833c
00000110: fc3e 09be fd7a 043d 59fd 32bd bacd aa3d
00000120: 21c6 d93c 9b35 1a3d aaee 433d 92b6 5cbc
00000130: 90f9 05be 218d 8bbb e3fe 533c 98e0 803d
00000140: a662 a13a dd02 0dbd 7805 18be f032 d53d
00000150: 1346 00bd cb9b 1c3c 8c81 433b 505b d3bc
00000160: f3a3 433d 48a6 a3bd 4d1c 533e 490c 51bd
00000170: d479 b93d f7bb 9b3d b4e7 bc3d b62d aebd
00000180: c822 80bd 3715 7bbc dfdd 89bd 7eb5 babd
00000190: c31d 1f3e b4ee 4bbe 99c7 33be 9ba9 7a3c
000001a0: 36ea f6bc 7d69 c9bb 58a4 883d a482 babd
000001b0: 93c9 c0bd 7165 e03d 86dc 1e3d d3f6 4bbe
000001c0: 959e d2bd d330 03be 668c 9f3d d86d 96bd
000001d0: dbce f03d 6bf4 d83c 7deb bc3d c8c4 bf3b
000001e0: e313 d63d 1d53 b73c ede4 c2bc 5daf 493e
000001f0: 01e5 ad3a 8666 25be e7f9 14bd 662d 5ebd
00000200: 084c 5bbc d98b 753c e5ba bd3d 170a 903d
00000210: 7f62 223c 1b37 bebc 697e 1b3d b4ce a8bd
00000220: be1c 15bd c0d2 fabc 8606 b6ba 5264 28bb
00000230: 3fad 153e 32fe d83d 63a6 67bd 70a0 97bd
00000240: 65dd dfbd 5e37 03be 9438 cfbc 918d 43be
00000250: b6f2 47bd 35ea f13d 40af 8fbd ad77 6d3d
00000260: a883 f53d d5d6 2b3c fbe2 d4bd 6b18 23bc
00000270: 1b4a cabd 9529 943c 8969 a8bd f3f0 78bd
00000280: b897 7c3b e5c8 4dbe c37f 593d b29f 3abe
00000290: d54c f8bd 18a6 25bd 4436 ae3d 448d 013e
000002a0: 4bb6 f8bc d23b 76be 04aa fe3d 69a1 d33d
000002b0: 1c35 ae3d b6e2 5b3d b56e 36bd 2a1c af3d
000002c0: d03d 9d3d 4ac6 3d3d 8ef6 47bc 110a 1fbd
000002d0: 4711 2b3c bb63 1c3d 96b1 a5bd 20cc 2bbe
000002e0: e0ca e9bb 0a19 2b3d 8b8d 263d f809 3cbc
000002f0: 89a5 6d3d 145a 133e d9a4 2cbe f64c 12be
00000300: f472 35be e800 8dbd 4bd2 9a3d c2c2 3c3c
00000310: 5c18 4e3d 33d1 0bbe fbca c1bd 922a 9d3d
00000320: 24c7 d7bd 35b7 0bbd c406 903d 1bba 16be
00000330: c096 d63d acd9 1ebd 86e2 90bc 54f9 20be
00000340: 0856 28be a2e8 8bbe 5afa d3bd 4679 d0bd
00000350: 4604 ebbd 08b9 5abd bd7f 913d b2a4 31be
00000360: 7104 263d 2fc8 483d ee3e 00bd 9237 6abc
00000370: b9fb 683d ad1f fa3c 4783 d8bd 998c f9bd
00000380: abde ff3b bc14 d3bd b4d8 e43d 4f88 5fbd
00000390: 2fe4 22bd e8ec a03d d773 703d 1031 c93d
000003a0: 08d7 0abb e582 93be cd53 35bd a176 ef3c
000003b0: a795 053e eb35 a5bd 0f45 22bc 1f4e af3c
000003c0: d844 b73d f75c 8ebc 3d63 06bd 636e 60bd
000003d0: 0d9d 183d e835 e4bc becb 5e3d 4661 83be
000003e0: 56da 05be 4bfe 5bbc ea32 703d e800 0e3b
000003f0: bae5 19bd c862 37bc 6959 76be cbc9 c23c
0.0069769514 0.11603284 -0.014825429 -0.008685078 0.15533352 0.034817748 -0.0047180504 -0.12273067
-0.04145939 -0.12783216 0.18436205 0.0759269 0.1363019 0.14291386 0.018065123 -0.038281
-0.05970118 -0.057200998 0.030001739 -0.07346781 -0.0044926293 -0.124396004 0.09282969 0.11263983
0.06230355 -0.086406164 0.109213136 0.0372244 0.034016512 0.051767692 -0.0071952823 -0.04720346
0.171368 -0.19898975 0.021175733 0.13427013 0.003343975 -0.04889428 -0.039128114 -0.05908259
-0.022322746 0.05528998 -0.08797771 0.048073366 -0.05224902 0.016613998 0.20591952 0.14509162
0.13297425 -0.103495166 0.022473201 -0.07685003 -0.07426652 0.002822822 0.016786601 0.02730228
0.01785584 0.22438273 -0.08236587 0.078494504 -0.037250753 0.0051496276 -0.10408266 0.06877077
0.075616404 -0.12932892 -0.038176015 0.016052954 -0.13402933 0.032343853 -0.043698642 0.083400205
0.026583733 0.03764878 0.04783503 -0.0134712625 -0.13083482 -0.0042587672 0.012939188 0.06292838
0.0012312725 -0.03442656 -0.14845836 0.10410106 -0.031316828 0.009558628 0.0029831855 -0.025800377
0.047763776 -0.079907 0.20616265 -0.051037107 0.0905644 0.07604211 0.09223881 -0.085048124
-0.06256634 -0.015324882 -0.06731772 -0.09116648 0.15538697 -0.19915277 -0.17556609 0.015299226
-0.030140977 -0.0061466084 0.06671971 -0.09106949 -0.09413447 0.109568484 0.038784526 -0.19918375
-0.10284153 -0.12811594 0.07790451 -0.0734517 0.117582045 0.026483735 0.09224603 0.0058523156
0.10453012 0.022378499 -0.023790801 0.19695802 0.0013267101 -0.16152391 -0.036371138 -0.054242514
-0.0133848265 0.014986956 0.09264163 0.070331745 0.009911179 -0.023219636 0.03796235 -0.082425505
-0.036404364 -0.030618072 -0.0013887442 -0.0025694561 0.1461687 0.10595359 -0.056555163 -0.07403648
-0.109308995 -0.1281409 -0.025295533 -0.19096972 -0.04881545 0.118122496 -0.07015848 0.05797546
0.11988002 0.010488232 -0.103948556 -0.009954552 -0.09877416 0.018086234 -0.08223254 -0.060776662
0.003854258 -0.20096166 0.05310036 -0.18224981 -0.121240295 -0.040441602 0.08506444 0.12651545
-0.030360362 -0.24046257 0.12434772 0.10333521 0.085062236 0.053683005 -0.044539172 0.08550294
0.076778054 0.04633168 -0.012204779 -0.03882796 0.010441131 0.038181048 -0.080905125 -0.16777086
-0.0071347803 0.041771926 0.04066233 -0.011476986 0.058019195 0.14389831 -0.1685976 -0.14287171
-0.17719632 -0.068849385 0.075596415 0.011521043 0.0503162 -0.13654022 -0.094625436 0.07674135
-0.1053603 -0.034110267 0.070325404 -0.14719431 0.10477972 -0.038781807 -0.01768614 -0.15720111
-0.16439068 -0.27325922 -0.10350485 -0.10179381 -0.114754245 -0.053399116 0.07104442 -0.17347983
0.04053158 0.049019035 -0.031310014 -0.014295476 0.056880686 0.030532682 -0.10571914 -0.1218502
0.0078085265 -0.10306689 0.11174145 -0.054573353 -0.039768394 0.07857686 0.058704223 0.09823811
-0.0021185298 -0.28810802 -0.04426937 0.029231371 0.13045369 -0.08066925 -0.00990416 0.021399556
0.08948678 -0.017378313 -0.032809485 -0.054792773 0.03725915 -0.027857736 0.054393522 -0.2566015
-0.1307157 -0.013427327 0.058642305 0.002166802 -0.0375726 -0.011192985 -0.24057545 0.023777863

network.8.bias f4 [32]
00000000: 6e84 8836 1b3d 5536 7364 3ab6 9031 d1b6
00000010: 9116 d136 3405 8138 ea4f ee36 2864 b9b5
00000020: e81b 80b5 7bd8 b7b5 305c 90b5 3ed0 7335
00000030: 363a 06b8 b345 8835 38d5 8d38 836a 3ab6
00000040: 6c2d 9e37 582d c036 10ed ef36 1704 6cb5
00000050: 7831 f2b6 6732 7fb7 e0b9 4b35 2e86 a837
00000060: fef3 ec36 81bd e7b7 5f97 0138 10b1 3a38
00000070: 2339 8b36 819a 00b6 6383 7037 4da8 1cb7
4.0685327e-06 3.1775041e-06 -2.777463e-06 -6.234455e-06 6.2313125e-06 6.1521685e-05 7.102256e-06 -1.3812723e-06
-9.544865e-07 -1.3697567e-06 -1.0755666e-06 9.0827587e-07 -3.2002303e-05 1.0153075e-06 6.763119e-05 -2.7778158e-06
1.8856219e-05 5.7273246e-06 7.1503528e-06 -8.79228e-07 -7.217921e-06 -1.521092e-05 7.5893877e-07 2.0089643e-05
7.0617525e-06 -2.762559e-05 3.0896972e-05 4.4510758e-05 4.1491744e-06 -1.916342e-06 1.4335706e-05 -9.33751e-06

network.9.weight f4 [32]
00000000: 8c2c 7c3f 979a 833f 91c3 743f 8b0f 843f
00000010: b92b 7f3f c3ff 8e3f c334 8f3f d874 5d3f
00000020: 4abb 8c3f c517 8b3f 8029 8a3f 76fa 873f
00000030: 1ada 893f 9038 853f 00ba 873f 5ac3 7a3f
00000040: f980 833f ee4b 813f e073 8d3f f628 8e3f
00000050: 3897 773f f2fc 773f b01f 823f cb03 5a3f
00000060: 8c66 873f 8ffc 7b3f 1c76 803f 20d8 8b3f
00000070: 68af 683f 9b3d 843f 3935 773f 3ddc 853f
0.98505473 1.0281552 0.9561091 1.0317243 0.9967609 1.1171802 1.1187977 0.86506414
1.0994656 1.0866629 1.0793915 1.062331 1.0769684 1.0407887 1.0603638 0.9795433
1.0273734 1.0101297 1.1050987 1.110625 0.96715117 0.9687034 1.016592 0.8516204
1.057817 0.9843225 1.0036044 1.0925331 0.9089265 1.03313 0.96565586 1.0457836

network.9.bias f4 [32]
00000000: 40e4 a3bd 5f1d 003c 584c 1e3b 2098 f3bd
00000010: d4c2 bbbc d7c7 f53d eaa4 15bd dca7 7fba
00000020: a37d a6bc caee 7bbd d7b2 87bd f1c4 4cbd
00000030: 9117 503e feca eabd eab4 5f3d 9cce 4d3c
00000040: 0b80 b4bd 6818 99bd 48a8 973d 6a15 f4bd
00000050: c9b1 563e 0d68 5abe 66cb 9bbb 99a2 a8bd
00000060: af32 69bd f0ca 03be 4cf1 2f3c 9309 0d3e
00000070: d4c6 a9bd 666a 1cbe 8b98 c7bd 64c2 76bd
-0.080025196 0.007819503 0.002415439 -0.1189425 -0.02292005 0.12001007 -0.036534227 -0.0009752491
-0.02032358 -0.061507024 -0.06625908 -0.049992505 0.2032149 -0.11464499 0.054615892 0.012561467
-0.08813485 -0.07475358 0.07405144 -0.11918147 0.20966257 -0.21328755 -0.0047544716 -0.08234138
-0.0569331 -0.12870383 0.010738682 0.13773184 -0.082898766 -0.15274963 -0.09745892 -0.06024398

network.9.running_mean f4 [32]
00000000: a063 8a3e 6317 8abe bf5a 99be 3aa8 44bf
00000010: 2e23 09bf 67b3 53bf 854b b3be ef3a 5b3e
00000020: 86b2 18bf 06d8 7cbe 3498 76bf 518a 42bf
00000030: 7a46 71bf ad8f 7fbf e970 3ebf e3ab d0be
00000040: 4aaa 64bf b6bf 4fbf 6bbf 0ebf fa32 fdbe
00000050: 6471 2bbf a12b 50bf 2a19 f4be 5a92 9a3d
00000060: 8143 30bf 75a1 043e 1c1a 0bbf abe5 65bf
00000070: 6f1d 2dbf c475 65bf 29cd 0fbd 0fb0 933d
0.27029133 -0.26970968 -0.29952046 -0.76819193 -0.53569305 -0.8269562 -0.35018554 0.214092
-0.59647405 -0.24691781 -0.96325994 -0.75992304 -0.94248164 -0.99828607 -0.7439104 -0.4075614
-0.8932234 -0.811519 -0.5576083 -0.49452955 -0.66969895 -0.8131657 -0.4767545 0.075474456
-0.68853 0.12952216 -0.54336715 -0.8980357 -0.6762304 -0.8963282 -0.035107765 0.07211315

network.9.running_var f4 [32]
00000000: 63c5 cf3e 90c4 fc3e 1490 9d3e dba2 243f
00000010: 3c73 023f 76c4 d63e dfec f53e 59bd 763e
00000020: 38c2 fe3e e13d fd3e 7014 083f a3e9 db3e
00000030: d5b2 9e3e accd 033f 1bd9 c63e 9682 a63e
00000040: 783b 053f b182 f13e 6a92 ea3e f62c a43e
00000050: e153 003f 0edc b63e 602b f43e 44f1 573e
00000060: 2cbf ac3e b426 c63e fbac dd3e 6795 cf3e
00000070: ec3e 093f 0072 fc3e b508 393e 97a9 073f
0.40580282 0.49368715 0.30773985 0.64311 0.50957084 0.41946763 0.4803228 0.24095668
0.49757552 0.49461272 0.53156185 0.42951688 0.30995813 0.51485705 0.38837513 0.32521504
0.5204387 0.47170022 0.4581483 0.32065552 0.5012799 0.35714763 0.47689342 0.2108813
0.33739603 0.38701403 0.43296036 0.40543672 0.53611636 0.49305725 0.18069728 0.5299315

network.12.weight f4 [1, 32]
00000000: 068b 4e3e 07aa 12be 5c4b 073e 51b8 843e
00000010: f917 0fbe 126e 4dbe 302a 46be 5f53 953d
00000020: 0c96 75be 7107 82be a65a 423e 5695 8d3e
00000030: 7c69 2dbe dcf6 4f3e 22ac 20be b5d3 113e
00000040: 5c1c 5b3e 9cfd 533e 0d0b 2ebe 6f48 98be
00000050: 6058 f3bd 6675 5d3e 891a 4d3e d136 a53d
00000060: 59b8 33be 5bd6 323e c79f 5a3e 20d9 96be
00000070: 48c6 f73d 1f7f 743e e7c8 2a3e d461 493e
0.2017022 -0.14322673 0.13212341 0.25921872 -0.13973989 -0.2006152 -0.19352031 0.072912924
-0.2398302 -0.25396302 0.18979892 0.27652997 -0.1693477 0.20309013 -0.15690663 0.14240916
0.21397537 0.20702213 -0.16996403 -0.29742762 -0.118820906 0.21626815 0.20029654 0.08067096
-0.17550792 0.17464583 0.21350013 -0.29462528 0.12098366 0.23876618 0.166782 0.19666225
